USAGE: python detect_image_list.py <img-list-file> <img-root-dir> <save-dir>
['detect_image_list.py', '/workspace/data/qyc/data/MeGlass_ori_classify.lst', '/workspace/data/qyc/data/MeGlass_ori_classify', '/workspace/data/qyc/data/MeGlass_ori_Crop']
WARNING: Logging before InitGoogleLogging() is written to STDERR
I0612 14:36:13.543859 39443 net.cpp:49] Initializing net from parameters: 
name: "PNet"
input: "data"
input_dim: 1
input_dim: 3
input_dim: 12
input_dim: 12
state {
  phase: TEST
}
layer {
  name: "conv1"
  type: "Convolution"
  bottom: "data"
  top: "conv1"
  param {
    lr_mult: 1
    decay_mult: 1
  }
  param {
    lr_mult: 2
    decay_mult: 0
  }
  convolution_param {
    num_output: 10
    kernel_size: 3
    stride: 1
    weight_filler {
      type: "xavier"
    }
    bias_filler {
      type: "constant"
      value: 0
    }
  }
}
layer {
  name: "PReLU1"
  type: "PReLU"
  bottom: "conv1"
  top: "conv1"
}
layer {
  name: "pool1"
  type: "Pooling"
  bottom: "conv1"
  top: "pool1"
  pooling_param {
    pool: MAX
    kernel_size: 2
    stride: 2
  }
}
layer {
  name: "conv2"
  type: "Convolution"
  bottom: "pool1"
  top: "conv2"
  param {
    lr_mult: 1
    decay_mult: 1
  }
  param {
    lr_mult: 2
    decay_mult: 0
  }
  convolution_param {
    num_output: 16
    kernel_size: 3
    stride: 1
    weight_filler {
      type: "xavier"
    }
    bias_filler {
      type: "constant"
      value: 0
    }
  }
}
layer {
  name: "PReLU2"
  type: "PReLU"
  bottom: "conv2"
  top: "conv2"
}
layer {
  name: "conv3"
  type: "Convolution"
  bottom: "conv2"
  top: "conv3"
  param {
    lr_mult: 1
    decay_mult: 1
  }
  param {
    lr_mult: 2
    decay_mult: 0
  }
  convolution_param {
    num_output: 32
    kernel_size: 3
    stride: 1
    weight_filler {
      type: "xavier"
    }
    bias_filler {
      type: "constant"
      value: 0
    }
  }
}
layer {
  name: "PReLU3"
  type: "PReLU"
  bottom: "conv3"
  top: "conv3"
}
layer {
  name: "conv4-1"
  type: "Convolution"
  bottom: "conv3"
  top: "conv4-1"
  param {
    lr_mult: 1
    decay_mult: 1
  }
  param {
    lr_mult: 2
    decay_mult: 0
  }
  convolution_param {
    num_output: 2
    kernel_size: 1
    stride: 1
    weight_filler {
      type: "xavier"
    }
    bias_filler {
      type: "constant"
      value: 0
    }
  }
}
layer {
  name: "conv4-2"
  type: "Convolution"
  bottom: "conv3"
  top: "conv4-2"
  param {
    lr_mult: 1
    decay_mult: 1
  }
  param {
    lr_mult: 2
    decay_mult: 0
  }
  convolution_param {
    num_output: 4
    kernel_size: 1
    stride: 1
    weight_filler {
      type: "xavier"
    }
    bias_filler {
      type: "constant"
      value: 0
    }
  }
}
layer {
  name: "prob1"
  type: "Softmax"
  bottom: "conv4-1"
  top: "prob1"
}
I0612 14:36:13.543968 39443 net.cpp:413] Input 0 -> data
I0612 14:36:13.563407 39443 layer_factory.hpp:77] Creating layer conv1
I0612 14:36:13.563472 39443 net.cpp:106] Creating Layer conv1
I0612 14:36:13.563478 39443 net.cpp:454] conv1 <- data
I0612 14:36:13.563488 39443 net.cpp:411] conv1 -> conv1
I0612 14:36:13.566347 39443 net.cpp:150] Setting up conv1
I0612 14:36:13.566380 39443 net.cpp:157] Top shape: 1 10 10 10 (1000)
I0612 14:36:13.566385 39443 net.cpp:165] Memory required for data: 4000
I0612 14:36:13.566401 39443 layer_factory.hpp:77] Creating layer PReLU1
I0612 14:36:13.566413 39443 net.cpp:106] Creating Layer PReLU1
I0612 14:36:13.566418 39443 net.cpp:454] PReLU1 <- conv1
I0612 14:36:13.566426 39443 net.cpp:397] PReLU1 -> conv1 (in-place)
I0612 14:36:13.566584 39443 net.cpp:150] Setting up PReLU1
I0612 14:36:13.566594 39443 net.cpp:157] Top shape: 1 10 10 10 (1000)
I0612 14:36:13.566598 39443 net.cpp:165] Memory required for data: 8000
I0612 14:36:13.566606 39443 layer_factory.hpp:77] Creating layer pool1
I0612 14:36:13.566617 39443 net.cpp:106] Creating Layer pool1
I0612 14:36:13.566622 39443 net.cpp:454] pool1 <- conv1
I0612 14:36:13.566627 39443 net.cpp:411] pool1 -> pool1
I0612 14:36:13.566684 39443 net.cpp:150] Setting up pool1
I0612 14:36:13.566691 39443 net.cpp:157] Top shape: 1 10 5 5 (250)
I0612 14:36:13.566694 39443 net.cpp:165] Memory required for data: 9000
I0612 14:36:13.566714 39443 layer_factory.hpp:77] Creating layer conv2
I0612 14:36:13.566725 39443 net.cpp:106] Creating Layer conv2
I0612 14:36:13.566730 39443 net.cpp:454] conv2 <- pool1
I0612 14:36:13.566736 39443 net.cpp:411] conv2 -> conv2
I0612 14:36:13.569008 39443 net.cpp:150] Setting up conv2
I0612 14:36:13.569038 39443 net.cpp:157] Top shape: 1 16 3 3 (144)
I0612 14:36:13.569043 39443 net.cpp:165] Memory required for data: 9576
I0612 14:36:13.569054 39443 layer_factory.hpp:77] Creating layer PReLU2
I0612 14:36:13.569066 39443 net.cpp:106] Creating Layer PReLU2
I0612 14:36:13.569069 39443 net.cpp:454] PReLU2 <- conv2
I0612 14:36:13.569079 39443 net.cpp:397] PReLU2 -> conv2 (in-place)
I0612 14:36:13.569252 39443 net.cpp:150] Setting up PReLU2
I0612 14:36:13.569259 39443 net.cpp:157] Top shape: 1 16 3 3 (144)
I0612 14:36:13.569262 39443 net.cpp:165] Memory required for data: 10152
I0612 14:36:13.569268 39443 layer_factory.hpp:77] Creating layer conv3
I0612 14:36:13.569280 39443 net.cpp:106] Creating Layer conv3
I0612 14:36:13.569284 39443 net.cpp:454] conv3 <- conv2
I0612 14:36:13.569293 39443 net.cpp:411] conv3 -> conv3
I0612 14:36:13.571676 39443 net.cpp:150] Setting up conv3
I0612 14:36:13.571701 39443 net.cpp:157] Top shape: 1 32 1 1 (32)
I0612 14:36:13.571703 39443 net.cpp:165] Memory required for data: 10280
I0612 14:36:13.571712 39443 layer_factory.hpp:77] Creating layer PReLU3
I0612 14:36:13.571722 39443 net.cpp:106] Creating Layer PReLU3
I0612 14:36:13.571725 39443 net.cpp:454] PReLU3 <- conv3
I0612 14:36:13.571732 39443 net.cpp:397] PReLU3 -> conv3 (in-place)
I0612 14:36:13.571892 39443 net.cpp:150] Setting up PReLU3
I0612 14:36:13.571904 39443 net.cpp:157] Top shape: 1 32 1 1 (32)
I0612 14:36:13.571911 39443 net.cpp:165] Memory required for data: 10408
I0612 14:36:13.571921 39443 layer_factory.hpp:77] Creating layer conv3_PReLU3_0_split
I0612 14:36:13.571929 39443 net.cpp:106] Creating Layer conv3_PReLU3_0_split
I0612 14:36:13.571934 39443 net.cpp:454] conv3_PReLU3_0_split <- conv3
I0612 14:36:13.571940 39443 net.cpp:411] conv3_PReLU3_0_split -> conv3_PReLU3_0_split_0
I0612 14:36:13.571950 39443 net.cpp:411] conv3_PReLU3_0_split -> conv3_PReLU3_0_split_1
I0612 14:36:13.572021 39443 net.cpp:150] Setting up conv3_PReLU3_0_split
I0612 14:36:13.572028 39443 net.cpp:157] Top shape: 1 32 1 1 (32)
I0612 14:36:13.572032 39443 net.cpp:157] Top shape: 1 32 1 1 (32)
I0612 14:36:13.572036 39443 net.cpp:165] Memory required for data: 10664
I0612 14:36:13.572039 39443 layer_factory.hpp:77] Creating layer conv4-1
I0612 14:36:13.572052 39443 net.cpp:106] Creating Layer conv4-1
I0612 14:36:13.572059 39443 net.cpp:454] conv4-1 <- conv3_PReLU3_0_split_0
I0612 14:36:13.572074 39443 net.cpp:411] conv4-1 -> conv4-1
I0612 14:36:13.572513 39443 net.cpp:150] Setting up conv4-1
I0612 14:36:13.572527 39443 net.cpp:157] Top shape: 1 2 1 1 (2)
I0612 14:36:13.572530 39443 net.cpp:165] Memory required for data: 10672
I0612 14:36:13.572537 39443 layer_factory.hpp:77] Creating layer conv4-2
I0612 14:36:13.572547 39443 net.cpp:106] Creating Layer conv4-2
I0612 14:36:13.572553 39443 net.cpp:454] conv4-2 <- conv3_PReLU3_0_split_1
I0612 14:36:13.572561 39443 net.cpp:411] conv4-2 -> conv4-2
I0612 14:36:13.572971 39443 net.cpp:150] Setting up conv4-2
I0612 14:36:13.572981 39443 net.cpp:157] Top shape: 1 4 1 1 (4)
I0612 14:36:13.572985 39443 net.cpp:165] Memory required for data: 10688
I0612 14:36:13.572991 39443 layer_factory.hpp:77] Creating layer prob1
I0612 14:36:13.572999 39443 net.cpp:106] Creating Layer prob1
I0612 14:36:13.573002 39443 net.cpp:454] prob1 <- conv4-1
I0612 14:36:13.573014 39443 net.cpp:411] prob1 -> prob1
I0612 14:36:13.573109 39443 net.cpp:150] Setting up prob1
I0612 14:36:13.573120 39443 net.cpp:157] Top shape: 1 2 1 1 (2)
I0612 14:36:13.573123 39443 net.cpp:165] Memory required for data: 10696
I0612 14:36:13.573127 39443 net.cpp:228] prob1 does not need backward computation.
I0612 14:36:13.573132 39443 net.cpp:228] conv4-2 does not need backward computation.
I0612 14:36:13.573148 39443 net.cpp:228] conv4-1 does not need backward computation.
I0612 14:36:13.573153 39443 net.cpp:228] conv3_PReLU3_0_split does not need backward computation.
…
I0612 14:36:13.573350 39443 net.cpp:816] Ignoring source layer label1_slicer_label_0_split
I0612 14:36:13.573354 39443 net.cpp:816] Ignoring source layer silence
I0612 14:36:13.573371 39443 net.cpp:816] Ignoring source layer conv4-1_conv4-1_0_split
I0612 14:36:13.573376 39443 net.cpp:816] Ignoring source layer loss1
I0612 14:36:13.573380 39443 net.cpp:816] Ignoring source layer loss2
I0612 14:36:13.573384 39443 net.cpp:816] Ignoring source layer accuracy1
I0612 14:36:13.573725 39443 net.cpp:49] Initializing net from parameters: 
name: "RNet"
input: "data"
input_dim: 1
input_dim: 3
input_dim: 24
input_dim: 24
state {
  phase: TEST
}
layer {
  name: "conv1"
  type: "Convolution"
  bottom: "data"
  top: "conv1"
  param {
    lr_mult: 0
    decay_mult: 0
  }
  param {
    lr_mult: 0
    decay_mult: 0
  }
  convolution_param {
    num_output: 28
    kernel_size: 3
    stride: 1
    weight_filler {
      type: "xavier"
    }
    bias_filler {
      type: "constant"
      value: 0
    }
  }
}
layer {
  name: "prelu1"
  type: "PReLU"
  bottom: "conv1"
  top: "conv1"
  propagate_down: true
}
layer {
  name: "pool1"
  type: "Pooling"
  bottom: "conv1"
  top: "pool1"
  pooling_param {
    pool: MAX
    kernel_size: 3
    stride: 2
  }
}
layer {
  name: "conv2"
  type: "Convolution"
  bottom: "pool1"
  top: "conv2"
  param {
    lr_mult: 0
    decay_mult: 0
  }
  param {
    lr_mult: 0
    decay_mult: 0
  }
  convolution_param {
    num_output: 48
    kernel_size: 3
    stride: 1
    weight_filler {
      type: "xavier"
    }
    bias_filler {
      type: "constant"
      value: 0
    }
  }
}
layer {
  name: "prelu2"
  type: "PReLU"
  bottom: "conv2"
  top: "conv2"
  propagate_down: true
}
layer {
  name: "pool2"
  type: "Pooling"
  bottom: "conv2"
  top: "pool2"
  pooling_param {
    pool: MAX
    kernel_size: 3
    stride: 2
  }
}
layer {
  name: "conv3"
  type: "Convolution"
  bottom: "pool2"
  top: "conv3"
  param {
    lr_mult: 0
    decay_mult: 0
  }
  param {
    lr_mult: 0
    decay_mult: 0
  }
  convolution_param {
    num_output: 64
    kernel_size: 2
    stride: 1
    weight_filler {
      type: "xavier"
    }
    bias_filler {
      type: "constant"
      value: 0
    }
  }
}
layer {
  name: "prelu3"
  type: "PReLU"
  bottom: "conv3"
  top: "conv3"
  propagate_down: true
}
layer {
  name: "conv4"
  type: "InnerProduct"
  bottom: "conv3"
  top: "conv4"
  param {
    lr_mult: 0
    decay_mult: 0
  }
  param {
    lr_mult: 0
    decay_mult: 0
  }
  inner_product_param {
    num_output: 128
    weight_filler {
      type: "xavier"
    }
    bias_filler {
      type: "constant"
      value: 0
    }
  }
}
layer {
  name: "prelu4"
  type: "PReLU"
  bottom: "conv4"
  top: "conv4"
}
layer {
  name: "conv5-1"
  type: "InnerProduct"
  bottom: "conv4"
  top: "conv5-1"
  param {
    lr_mult: 0
    decay_mult: 0
  }
  param {
    lr_mult: 0
    decay_mult: 0
  }
  inner_product_param {
    num_output: 2
    weight_filler {
      type: "xavier"
    }
    bias_filler {
      type: "constant"
      value: 0
    }
  }
}
layer {
  name: "conv5-2"
  type: "InnerProduct"
  bottom: "conv4"
  top: "conv5-2"
  param {
    lr_mult: 1
    decay_mult: 1
  }
  param {
    lr_mult: 2
    decay_mult: 1
  }
  inner_product_param {
    num_output: 4
    weight_filler {
      type: "xavier"
    }
    bias_filler {
      type: "constant"
      value: 0
    }
  }
}
layer {
  name: "prob1"
  type: "Softmax"
  bottom: "conv5-1"
  top: "prob1"
}
I0612 14:36:13.573792 39443 net.cpp:413] Input 0 -> data
I0612 14:36:13.573845 39443 layer_factory.hpp:77] Creating layer conv1
I0612 14:36:13.573858 39443 net.cpp:106] Creating Layer conv1
I0612 14:36:13.573863 39443 net.cpp:454] conv1 <- data
I0612 14:36:13.573870 39443 net.cpp:411] conv1 -> conv1
I0612 14:36:13.574290 39443 net.cpp:150] Setting up conv1
I0612 14:36:13.574301 39443 net.cpp:157] Top shape: 1 28 22 22 (13552)
I0612 14:36:13.574304 39443 net.cpp:165] Memory required for data: 54208
I0612 14:36:13.574314 39443 layer_factory.hpp:77] Creating layer prelu1
I0612 14:36:13.574323 39443 net.cpp:106] Creating Layer prelu1
I0612 14:36:13.574327 39443 net.cpp:454] prelu1 <- conv1
I0612 14:36:13.574332 39443 net.cpp:397] prelu1 -> conv1 (in-place)
I0612 14:36:13.574499 39443 net.cpp:150] Setting up prelu1
I0612 14:36:13.574510 39443 net.cpp:157] Top shape: 1 28 22 22 (13552)
I0612 14:36:13.574513 39443 net.cpp:165] Memory required for data: 108416
I0612 14:36:13.574522 39443 layer_factory.hpp:77] Creating layer pool1
I0612 14:36:13.574530 39443 net.cpp:106] Creating Layer pool1
I0612 14:36:13.574535 39443 net.cpp:454] pool1 <- conv1
I0612 14:36:13.574542 39443 net.cpp:411] pool1 -> pool1
I0612 14:36:13.574596 39443 net.cpp:150] Setting up pool1
I0612 14:36:13.574604 39443 net.cpp:157] Top shape: 1 28 11 11 (3388)
I0612 14:36:13.574607 39443 net.cpp:165] Memory required for data: 121968
I0612 14:36:13.574611 39443 layer_factory.hpp:77] Creating layer conv2
I0612 14:36:13.574620 39443 net.cpp:106] Creating Layer conv2
I0612 14:36:13.574625 39443 net.cpp:454] conv2 <- pool1
I0612 14:36:13.574631 39443 net.cpp:411] conv2 -> conv2
I0612 14:36:13.575116 39443 net.cpp:150] Setting up conv2
I0612 14:36:13.575125 39443 net.cpp:157] Top shape: 1 48 9 9 (3888)
I0612 14:36:13.575129 39443 net.cpp:165] Memory required for data: 137520
I0612 14:36:13.575139 39443 layer_factory.hpp:77] Creating layer prelu2
I0612 14:36:13.575147 39443 net.cpp:106] Creating Layer prelu2
I0612 14:36:13.575151 39443 net.cpp:454] prelu2 <- conv2
I0612 14:36:13.575157 39443 net.cpp:397] prelu2 -> conv2 (in-place)
I0612 14:36:13.575306 39443 net.cpp:150] Setting up prelu2
I0612 14:36:13.575314 39443 net.cpp:157] Top shape: 1 48 9 9 (3888)
I0612 14:36:13.575317 39443 net.cpp:165] Memory required for data: 153072
I0612 14:36:13.575323 39443 layer_factory.hpp:77] Creating layer pool2
I0612 14:36:13.575330 39443 net.cpp:106] Creating Layer pool2
I0612 14:36:13.575333 39443 net.cpp:454] pool2 <- conv2
I0612 14:36:13.575340 39443 net.cpp:411] pool2 -> pool2
I0612 14:36:13.575393 39443 net.cpp:150] Setting up pool2
I0612 14:36:13.575400 39443 net.cpp:157] Top shape: 1 48 4 4 (768)
I0612 14:36:13.575403 39443 net.cpp:165] Memory required for data: 156144
I0612 14:36:13.575407 39443 layer_factory.hpp:77] Creating layer conv3
I0612 14:36:13.575415 39443 net.cpp:106] Creating Layer conv3
I0612 14:36:13.575419 39443 net.cpp:454] conv3 <- pool2
I0612 14:36:13.575425 39443 net.cpp:411] conv3 -> conv3
I0612 14:36:13.575879 39443 net.cpp:150] Setting up conv3
I0612 14:36:13.575888 39443 net.cpp:157] Top shape: 1 64 3 3 (576)
I0612 14:36:13.575892 39443 net.cpp:165] Memory required for data: 158448
I0612 14:36:13.575898 39443 layer_factory.hpp:77] Creating layer prelu3
I0612 14:36:13.575904 39443 net.cpp:106] Creating Layer prelu3
I0612 14:36:13.575908 39443 net.cpp:454] prelu3 <- conv3
I0612 14:36:13.575915 39443 net.cpp:397] prelu3 -> conv3 (in-place)
I0612 14:36:13.576052 39443 net.cpp:150] Setting up prelu3
I0612 14:36:13.576059 39443 net.cpp:157] Top shape: 1 64 3 3 (576)
I0612 14:36:13.576071 39443 net.cpp:165] Memory required for data: 160752
I0612 14:36:13.576079 39443 layer_factory.hpp:77] Creating layer conv4
I0612 14:36:13.576089 39443 net.cpp:106] Creating Layer conv4
I0612 14:36:13.576093 39443 net.cpp:454] conv4 <- conv3
I0612 14:36:13.576100 39443 net.cpp:411] conv4 -> conv4
I0612 14:36:13.578922 39443 net.cpp:150] Setting up conv4
I0612 14:36:13.578946 39443 net.cpp:157] Top shape: 1 128 (128)
I0612 14:36:13.578950 39443 net.cpp:165] Memory required for data: 161264
I0612 14:36:13.578958 39443 layer_factory.hpp:77] Creating layer prelu4
I0612 14:36:13.578968 39443 net.cpp:106] Creating Layer prelu4
I0612 14:36:13.578974 39443 net.cpp:454] prelu4 <- conv4
I0612 14:36:13.578979 39443 net.cpp:397] prelu4 -> conv4 (in-place)
I0612 14:36:13.579103 39443 net.cpp:150] Setting up prelu4
I0612 14:36:13.579110 39443 net.cpp:157] Top shape: 1 128 (128)
I0612 14:36:13.579114 39443 net.cpp:165] Memory required for data: 161776
I0612 14:36:13.579119 39443 layer_factory.hpp:77] Creating layer conv4_prelu4_0_split
I0612 14:36:13.579126 39443 net.cpp:106] Creating Layer conv4_prelu4_0_split
I0612 14:36:13.579130 39443 net.cpp:454] conv4_prelu4_0_split <- conv4
I0612 14:36:13.579136 39443 net.cpp:411] conv4_prelu4_0_split -> conv4_prelu4_0_split_0
I0612 14:36:13.579144 39443 net.cpp:411] conv4_prelu4_0_split -> conv4_prelu4_0_split_1
I0612 14:36:13.579200 39443 net.cpp:150] Setting up conv4_prelu4_0_split
I0612 14:36:13.579207 39443 net.cpp:157] Top shape: 1 128 (128)
I0612 14:36:13.579212 39443 net.cpp:157] Top shape: 1 128 (128)
I0612 14:36:13.579216 39443 net.cpp:165] Memory required for data: 162800
I0612 14:36:13.579219 39443 layer_factory.hpp:77] Creating layer conv5-1
I0612 14:36:13.579228 39443 net.cpp:106] Creating Layer conv5-1
I0612 14:36:13.579232 39443 net.cpp:454] conv5-1 <- conv4_prelu4_0_split_0
I0612 14:36:13.579241 39443 net.cpp:411] conv5-1 -> conv5-1
I0612 14:36:13.579390 39443 net.cpp:150] Setting up conv5-1
I0612 14:36:13.579397 39443 net.cpp:157] Top shape: 1 2 (2)
I0612 14:36:13.579401 39443 net.cpp:165] Memory required for data: 162808
I0612 14:36:13.579406 39443 layer_factory.hpp:77] Creating layer conv5-2
I0612 14:36:13.579414 39443 net.cpp:106] Creating Layer conv5-2
I0612 14:36:13.579418 39443 net.cpp:454] conv5-2 <- conv4_prelu4_0_split_1
I0612 14:36:13.579425 39443 net.cpp:411] conv5-2 -> conv5-2
I0612 14:36:13.579599 39443 net.cpp:150] Setting up conv5-2
I0612 14:36:13.579607 39443 net.cpp:157] Top shape: 1 4 (4)
I0612 14:36:13.579610 39443 net.cpp:165] Memory required for data: 162824
I0612 14:36:13.579617 39443 layer_factory.hpp:77] Creating layer prob1
I0612 14:36:13.579625 39443 net.cpp:106] Creating Layer prob1
I0612 14:36:13.579628 39443 net.cpp:454] prob1 <- conv5-1
I0612 14:36:13.579634 39443 net.cpp:411] prob1 -> prob1
I0612 14:36:13.579727 39443 net.cpp:150] Setting up prob1
I0612 14:36:13.579733 39443 net.cpp:157] Top shape: 1 2 (2)
I0612 14:36:13.579737 39443 net.cpp:165] Memory required for data: 162832
I0612 14:36:13.579741 39443 net.cpp:228] prob1 does not need backward computation.
I0612 14:36:13.579746 39443 net.cpp:228] conv5-2 does not need backward computation.
I0612 14:36:13.579749 39443 net.cpp:228] conv5-1 does not need backward computation.
I0612 14:36:13.579753 39443 net.cpp:228] conv4_prelu4_0_split does not need backward computation.
…
I0612 14:36:13.580263 39443 net.cpp:816] Ignoring source layer conv5-1_conv5-1_0_split
I0612 14:36:13.580269 39443 net.cpp:816] Ignoring source layer conv5-3
I0612 14:36:13.580273 39443 net.cpp:816] Ignoring source layer loss3
I0612 14:36:13.580276 39443 net.cpp:816] Ignoring source layer loss2
I0612 14:36:13.580279 39443 net.cpp:816] Ignoring source layer loss1
I0612 14:36:13.580282 39443 net.cpp:816] Ignoring source layer accuracy1
I0612 14:36:13.580674 39443 net.cpp:49] Initializing net from parameters: 
name: "ONet"
input: "data"
input_dim: 1
input_dim: 3
input_dim: 48
input_dim: 48
state {
  phase: TEST
}
layer {
  name: "conv1"
  type: "Convolution"
  bottom: "data"
  top: "conv1"
  param {
    lr_mult: 1
    decay_mult: 1
  }
  param {
    lr_mult: 2
    decay_mult: 1
  }
  convolution_param {
    num_output: 32
    kernel_size: 3
    stride: 1
    weight_filler {
      type: "xavier"
    }
    bias_filler {
      type: "constant"
      value: 0
    }
  }
}
layer {
  name: "prelu1"
  type: "PReLU"
  bottom: "conv1"
  top: "conv1"
}
layer {
  name: "pool1"
  type: "Pooling"
  bottom: "conv1"
  top: "pool1"
  pooling_param {
    pool: MAX
    kernel_size: 3
    stride: 2
  }
}
layer {
  name: "conv2"
  type: "Convolution"
  bottom: "pool1"
  top: "conv2"
  param {
    lr_mult: 1
    decay_mult: 1
  }
  param {
    lr_mult: 2
    decay_mult: 1
  }
  convolution_param {
    num_output: 64
    kernel_size: 3
    stride: 1
    weight_filler {
      type: "xavier"
    }
    bias_filler {
      type: "constant"
      value: 0
    }
  }
}
layer {
  name: "prelu2"
  type: "PReLU"
  bottom: "conv2"
  top: "conv2"
}
layer {
  name: "pool2"
  type: "Pooling"
  bottom: "conv2"
  top: "pool2"
  pooling_param {
    pool: MAX
    kernel_size: 3
    stride: 2
  }
}
layer {
  name: "conv3"
  type: "Convolution"
  bottom: "pool2"
  top: "conv3"
  param {
    lr_mult: 1
    decay_mult: 1
  }
  param {
    lr_mult: 2
    decay_mult: 1
  }
  convolution_param {
    num_output: 64
    kernel_size: 3
    weight_filler {
      type: "xavier"
    }
    bias_filler {
      type: "constant"
      value: 0
    }
  }
}
layer {
  name: "prelu3"
  type: "PReLU"
  bottom: "conv3"
  top: "conv3"
}
layer {
  name: "pool3"
  type: "Pooling"
  bottom: "conv3"
  top: "pool3"
  pooling_param {
    pool: MAX
    kernel_size: 2
    stride: 2
  }
}
layer {
  name: "conv4"
  type: "Convolution"
  bottom: "pool3"
  top: "conv4"
  param {
    lr_mult: 1
    decay_mult: 1
  }
  param {
    lr_mult: 2
    decay_mult: 1
  }
  convolution_param {
    num_output: 128
    kernel_size: 2
    weight_filler {
      type: "xavier"
    }
    bias_filler {
      type: "constant"
      value: 0
    }
  }
}
layer {
  name: "prelu4"
  type: "PReLU"
  bottom: "conv4"
  top: "conv4"
}
layer {
  name: "conv5"
  type: "InnerProduct"
  bottom: "conv4"
  top: "conv5"
  param {
    lr_mult: 1
    decay_mult: 1
  }
  param {
    lr_mult: 2
    decay_mult: 1
  }
  inner_product_param {
    num_output: 256
    weight_filler {
      type: "xavier"
    }
    bias_filler {
      type: "constant"
      value: 0
    }
  }
}
layer {
  name: "drop5"
  type: "Dropout"
  bottom: "conv5"
  top: "conv5"
  dropout_param {
    dropout_ratio: 0.25
  }
}
layer {
  name: "prelu5"
  type: "PReLU"
  bottom: "conv5"
  top: "conv5"
}
layer {
  name: "conv6-1"
  type: "InnerProduct"
  bottom: "conv5"
  top: "conv6-1"
  param {
    lr_mult: 1
    decay_mult: 1
  }
  param {
    lr_mult: 2
    decay_mult: 1
  }
  inner_product_param {
    num_output: 2
    weight_filler {
      type: "xavier"
    }
    bias_filler {
      type: "constant"
      value: 0
    }
  }
}
layer {
  name: "conv6-2"
  type: "InnerProduct"
  bottom: "conv5"
  top: "conv6-2"
  param {
    lr_mult: 1
    decay_mult: 1
  }
  param {
    lr_mult: 2
    decay_mult: 1
  }
  inner_product_param {
    num_output: 4
    weight_filler {
      type: "xavier"
    }
    bias_filler {
      type: "constant"
      value: 0
    }
  }
}
layer {
  name: "conv6-3"
  type: "InnerProduct"
  bottom: "conv5"
  top: "conv6-3"
  param {
    lr_mult: 1
    decay_mult: 1
  }
  param {
    lr_mult: 2
    decay_mult: 1
  }
  inner_product_param {
    num_output: 10
    weight_filler {
      type: "xavier"
    }
    bias_filler {
      type: "constant"
      value: 0
    }
  }
}
layer {
  name: "prob1"
  type: "Softmax"
  bottom: "conv6-1"
  top: "prob1"
}
I0612 14:36:13.580750 39443 net.cpp:413] Input 0 -> data
I0612 14:36:13.580806 39443 layer_factory.hpp:77] Creating layer conv1
I0612 14:36:13.580818 39443 net.cpp:106] Creating Layer conv1
I0612 14:36:13.580823 39443 net.cpp:454] conv1 <- data
I0612 14:36:13.580829 39443 net.cpp:411] conv1 -> conv1
I0612 14:36:13.581225 39443 net.cpp:150] Setting up conv1
I0612 14:36:13.581236 39443 net.cpp:157] Top shape: 1 32 46 46 (67712)
I0612 14:36:13.581240 39443 net.cpp:165] Memory required for data: 270848
I0612 14:36:13.581250 39443 layer_factory.hpp:77] Creating layer prelu1
I0612 14:36:13.581259 39443 net.cpp:106] Creating Layer prelu1
I0612 14:36:13.581262 39443 net.cpp:454] prelu1 <- conv1
I0612 14:36:13.581267 39443 net.cpp:397] prelu1 -> conv1 (in-place)
I0612 14:36:13.581459 39443 net.cpp:150] Setting up prelu1
I0612 14:36:13.581468 39443 net.cpp:157] Top shape: 1 32 46 46 (67712)
I0612 14:36:13.581472 39443 net.cpp:165] Memory required for data: 541696
I0612 14:36:13.581480 39443 layer_factory.hpp:77] Creating layer pool1
I0612 14:36:13.581486 39443 net.cpp:106] Creating Layer pool1
I0612 14:36:13.581490 39443 net.cpp:454] pool1 <- conv1
I0612 14:36:13.581496 39443 net.cpp:411] pool1 -> pool1
I0612 14:36:13.581549 39443 net.cpp:150] Setting up pool1
I0612 14:36:13.581557 39443 net.cpp:157] Top shape: 1 32 23 23 (16928)
I0612 14:36:13.581560 39443 net.cpp:165] Memory required for data: 609408
I0612 14:36:13.581563 39443 layer_factory.hpp:77] Creating layer conv2
I0612 14:36:13.581573 39443 net.cpp:106] Creating Layer conv2
I0612 14:36:13.581575 39443 net.cpp:454] conv2 <- pool1
I0612 14:36:13.581581 39443 net.cpp:411] conv2 -> conv2
I0612 14:36:13.584064 39443 net.cpp:150] Setting up conv2
I0612 14:36:13.584082 39443 net.cpp:157] Top shape: 1 64 21 21 (28224)
I0612 14:36:13.584086 39443 net.cpp:165] Memory required for data: 722304
I0612 14:36:13.584097 39443 layer_factory.hpp:77] Creating layer prelu2
I0612 14:36:13.584105 39443 net.cpp:106] Creating Layer prelu2
I0612 14:36:13.584110 39443 net.cpp:454] prelu2 <- conv2
I0612 14:36:13.584115 39443 net.cpp:397] prelu2 -> conv2 (in-place)
I0612 14:36:13.584269 39443 net.cpp:150] Setting up prelu2
I0612 14:36:13.584277 39443 net.cpp:157] Top shape: 1 64 21 21 (28224)
I0612 14:36:13.584280 39443 net.cpp:165] Memory required for data: 835200
I0612 14:36:13.584286 39443 layer_factory.hpp:77] Creating layer pool2
I0612 14:36:13.584293 39443 net.cpp:106] Creating Layer pool2
I0612 14:36:13.584297 39443 net.cpp:454] pool2 <- conv2
I0612 14:36:13.584302 39443 net.cpp:411] pool2 -> pool2
I0612 14:36:13.584355 39443 net.cpp:150] Setting up pool2
I0612 14:36:13.584362 39443 net.cpp:157] Top shape: 1 64 10 10 (6400)
I0612 14:36:13.584367 39443 net.cpp:165] Memory required for data: 860800
I0612 14:36:13.584369 39443 layer_factory.hpp:77] Creating layer conv3
I0612 14:36:13.584378 39443 net.cpp:106] Creating Layer conv3
I0612 14:36:13.584383 39443 net.cpp:454] conv3 <- pool2
I0612 14:36:13.584388 39443 net.cpp:411] conv3 -> conv3
I0612 14:36:13.585031 39443 net.cpp:150] Setting up conv3
I0612 14:36:13.585039 39443 net.cpp:157] Top shape: 1 64 8 8 (4096)
I0612 14:36:13.585043 39443 net.cpp:165] Memory required for data: 877184
I0612 14:36:13.585057 39443 layer_factory.hpp:77] Creating layer prelu3
I0612 14:36:13.585064 39443 net.cpp:106] Creating Layer prelu3
I0612 14:36:13.585072 39443 net.cpp:454] prelu3 <- conv3
I0612 14:36:13.585081 39443 net.cpp:397] prelu3 -> conv3 (in-place)
I0612 14:36:13.585314 39443 net.cpp:150] Setting up prelu3
I0612 14:36:13.585322 39443 net.cpp:157] Top shape: 1 64 8 8 (4096)
I0612 14:36:13.585326 39443 net.cpp:165] Memory required for data: 893568
I0612 14:36:13.585335 39443 layer_factory.hpp:77] Creating layer pool3
I0612 14:36:13.585347 39443 net.cpp:106] Creating Layer pool3
I0612 14:36:13.585353 39443 net.cpp:454] pool3 <- conv3
I0612 14:36:13.585358 39443 net.cpp:411] pool3 -> pool3
I0612 14:36:13.585427 39443 net.cpp:150] Setting up pool3
I0612 14:36:13.585435 39443 net.cpp:157] Top shape: 1 64 4 4 (1024)
I0612 14:36:13.585438 39443 net.cpp:165] Memory required for data: 897664
I0612 14:36:13.585441 39443 layer_factory.hpp:77] Creating layer conv4
I0612 14:36:13.585451 39443 net.cpp:106] Creating Layer conv4
I0612 14:36:13.585458 39443 net.cpp:454] conv4 <- pool3
I0612 14:36:13.585467 39443 net.cpp:411] conv4 -> conv4
I0612 14:36:13.586108 39443 net.cpp:150] Setting up conv4
I0612 14:36:13.586118 39443 net.cpp:157] Top shape: 1 128 3 3 (1152)
I0612 14:36:13.586122 39443 net.cpp:165] Memory required for data: 902272
I0612 14:36:13.586128 39443 layer_factory.hpp:77] Creating layer prelu4
I0612 14:36:13.586133 39443 net.cpp:106] Creating Layer prelu4
I0612 14:36:13.586138 39443 net.cpp:454] prelu4 <- conv4
I0612 14:36:13.586143 39443 net.cpp:397] prelu4 -> conv4 (in-place)
I0612 14:36:13.586277 39443 net.cpp:150] Setting up prelu4
I0612 14:36:13.586283 39443 net.cpp:157] Top shape: 1 128 3 3 (1152)
I0612 14:36:13.586287 39443 net.cpp:165] Memory required for data: 906880
I0612 14:36:13.586292 39443 layer_factory.hpp:77] Creating layer conv5
I0612 14:36:13.586299 39443 net.cpp:106] Creating Layer conv5
I0612 14:36:13.586303 39443 net.cpp:454] conv5 <- conv4
I0612 14:36:13.586309 39443 net.cpp:411] conv5 -> conv5
I0612 14:36:13.588361 39443 net.cpp:150] Setting up conv5
I0612 14:36:13.588371 39443 net.cpp:157] Top shape: 1 256 (256)
I0612 14:36:13.588374 39443 net.cpp:165] Memory required for data: 907904
I0612 14:36:13.588382 39443 layer_factory.hpp:77] Creating layer drop5
I0612 14:36:13.588388 39443 net.cpp:106] Creating Layer drop5
I0612 14:36:13.588392 39443 net.cpp:454] drop5 <- conv5
I0612 14:36:13.588398 39443 net.cpp:397] drop5 -> conv5 (in-place)
I0612 14:36:13.588433 39443 net.cpp:150] Setting up drop5
I0612 14:36:13.588438 39443 net.cpp:157] Top shape: 1 256 (256)
I0612 14:36:13.588441 39443 net.cpp:165] Memory required for data: 908928
I0612 14:36:13.588445 39443 layer_factory.hpp:77] Creating layer prelu5
I0612 14:36:13.588451 39443 net.cpp:106] Creating Layer prelu5
I0612 14:36:13.588454 39443 net.cpp:454] prelu5 <- conv5
I0612 14:36:13.588459 39443 net.cpp:397] prelu5 -> conv5 (in-place)
I0612 14:36:13.588577 39443 net.cpp:150] Setting up prelu5
I0612 14:36:13.588584 39443 net.cpp:157] Top shape: 1 256 (256)
I0612 14:36:13.588588 39443 net.cpp:165] Memory required for data: 909952
I0612 14:36:13.588593 39443 layer_factory.hpp:77] Creating layer conv5_prelu5_0_split
I0612 14:36:13.588600 39443 net.cpp:106] Creating Layer conv5_prelu5_0_split
I0612 14:36:13.588604 39443 net.cpp:454] conv5_prelu5_0_split <- conv5
I0612 14:36:13.588610 39443 net.cpp:411] conv5_prelu5_0_split -> conv5_prelu5_0_split_0
I0612 14:36:13.588618 39443 net.cpp:411] conv5_prelu5_0_split -> conv5_prelu5_0_split_1
I0612 14:36:13.588624 39443 net.cpp:411] conv5_prelu5_0_split -> conv5_prelu5_0_split_2
I0612 14:36:13.588696 39443 net.cpp:150] Setting up conv5_prelu5_0_split
I0612 14:36:13.588703 39443 net.cpp:157] Top shape: 1 256 (256)
I0612 14:36:13.588707 39443 net.cpp:157] Top shape: 1 256 (256)
I0612 14:36:13.588711 39443 net.cpp:157] Top shape: 1 256 (256)
I0612 14:36:13.588714 39443 net.cpp:165] Memory required for data: 913024
I0612 14:36:13.588717 39443 layer_factory.hpp:77] Creating layer conv6-1
I0612 14:36:13.588734 39443 net.cpp:106] Creating Layer conv6-1
I0612 14:36:13.588739 39443 net.cpp:454] conv6-1 <- conv5_prelu5_0_split_0
I0612 14:36:13.588747 39443 net.cpp:411] conv6-1 -> conv6-1
I0612 14:36:13.588927 39443 net.cpp:150] Setting up conv6-1
I0612 14:36:13.588937 39443 net.cpp:157] Top shape: 1 2 (2)
I0612 14:36:13.588939 39443 net.cpp:165] Memory required for data: 913032
I0612 14:36:13.588950 39443 layer_factory.hpp:77] Creating layer conv6-2
I0612 14:36:13.588960 39443 net.cpp:106] Creating Layer conv6-2
I0612 14:36:13.588964 39443 net.cpp:454] conv6-2 <- conv5_prelu5_0_split_1
I0612 14:36:13.588971 39443 net.cpp:411] conv6-2 -> conv6-2
I0612 14:36:13.589143 39443 net.cpp:150] Setting up conv6-2
I0612 14:36:13.589151 39443 net.cpp:157] Top shape: 1 4 (4)
I0612 14:36:13.589154 39443 net.cpp:165] Memory required for data: 913048
I0612 14:36:13.589160 39443 layer_factory.hpp:77] Creating layer conv6-3
I0612 14:36:13.589170 39443 net.cpp:106] Creating Layer conv6-3
I0612 14:36:13.589174 39443 net.cpp:454] conv6-3 <- conv5_prelu5_0_split_2
I0612 14:36:13.589181 39443 net.cpp:411] conv6-3 -> conv6-3
I0612 14:36:13.589361 39443 net.cpp:150] Setting up conv6-3
I0612 14:36:13.589370 39443 net.cpp:157] Top shape: 1 10 (10)
I0612 14:36:13.589372 39443 net.cpp:165] Memory required for data: 913088
I0612 14:36:13.589378 39443 layer_factory.hpp:77] Creating layer prob1
I0612 14:36:13.589385 39443 net.cpp:106] Creating Layer prob1
I0612 14:36:13.589390 39443 net.cpp:454] prob1 <- conv6-1
I0612 14:36:13.589395 39443 net.cpp:411] prob1 -> prob1
I0612 14:36:13.589488 39443 net.cpp:150] Setting up prob1
I0612 14:36:13.589494 39443 net.cpp:157] Top shape: 1 2 (2)
I0612 14:36:13.589498 39443 net.cpp:165] Memory required for data: 913096
I0612 14:36:13.589503 39443 net.cpp:228] prob1 does not need backward computation.
I0612 14:36:13.589507 39443 net.cpp:228] conv6-3 does not need backward computation.
I0612 14:36:13.589511 39443 net.cpp:228] conv6-2 does not need backward computation.
I0612 14:36:13.589515 39443 net.cpp:228] conv6-1 does not need backward computation.
…
I0612 14:36:13.591274 39443 net.cpp:816] Ignoring source layer label1_slicer_label_0_split
I0612 14:36:13.591502 39443 net.cpp:816] Ignoring source layer conv6-1_conv6-1_0_split
I0612 14:36:13.591512 39443 net.cpp:816] Ignoring source layer loss1
I0612 14:36:13.591516 39443 net.cpp:816] Ignoring source layer accuracy1
I0612 14:36:13.591523 39443 net.cpp:816] Ignoring source layer loss2
I0612 14:36:13.591527 39443 net.cpp:816] Ignoring source layer loss3
I0612 14:36:13.592406 39443 net.cpp:49] Initializing net from parameters: 
name: "LNet"
input: "data"
input_dim: 1
input_dim: 15
input_dim: 24
input_dim: 24
state {
  phase: TEST
}
layer {
  name: "slicer_data"
  type: "Slice"
  bottom: "data"
  top: "data241"
  top: "data242"
  top: "data243"
  top: "data244"
  top: "data245"
  slice_param {
    slice_point: 3
    slice_point: 6
    slice_point: 9
    slice_point: 12
    axis: 1
  }
}
layer {
  name: "conv1_1"
  type: "Convolution"
  bottom: "data241"
  top: "conv1_1"
  param {
    lr_mult: 1
    decay_mult: 1
  }
  param {
    lr_mult: 2
    decay_mult: 1
  }
  convolution_param {
    num_output: 28
    kernel_size: 3
    stride: 1
    weight_filler {
      type: "xavier"
    }
    bias_filler {
      type: "constant"
      value: 0
    }
  }
}
layer {
  name: "prelu1_1"
  type: "PReLU"
  bottom: "conv1_1"
  top: "conv1_1"
}
layer {
  name: "pool1_1"
  type: "Pooling"
  bottom: "conv1_1"
  top: "pool1_1"
  pooling_param {
    pool: MAX
    kernel_size: 3
    stride: 2
  }
}
layer {
  name: "conv2_1"
  type: "Convolution"
  bottom: "pool1_1"
  top: "conv2_1"
  param {
    lr_mult: 1
    decay_mult: 1
  }
  param {
    lr_mult: 2
    decay_mult: 1
  }
  convolution_param {
    num_output: 48
    kernel_size: 3
    stride: 1
    weight_filler {
      type: "xavier"
    }
    bias_filler {
      type: "constant"
      value: 0
    }
  }
}
layer {
  name: "prelu2_1"
  type: "PReLU"
  bottom: "conv2_1"
  top: "conv2_1"
}
layer {
  name: "pool2_1"
  type: "Pooling"
  bottom: "conv2_1"
  top: "pool2_1"
  pooling_param {
    pool: MAX
    kernel_size: 3
    stride: 2
  }
}
layer {
  name: "conv3_1"
  type: "Convolution"
  bottom: "pool2_1"
  top: "conv3_1"
  param {
    lr_mult: 1
    decay_mult: 1
  }
  param {
    lr_mult: 2
    decay_mult: 1
  }
  convolution_param {
    num_output: 64
    kernel_size: 2
    stride: 1
    weight_filler {
      type: "xavier"
    }
    bias_filler {
      type: "constant"
      value: 0
    }
  }
}
layer {
  name: "prelu3_1"
  type: "PReLU"
  bottom: "conv3_1"
  top: "conv3_1"
}
layer {
  name: "conv1_2"
  type: "Convolution"
  bottom: "data242"
  top: "conv1_2"
  param {
    lr_mult: 1
    decay_mult: 1
  }
  param {
    lr_mult: 2
    decay_mult: 1
  }
  convolution_param {
    num_output: 28
    kernel_size: 3
    stride: 1
    weight_filler {
      type: "xavier"
    }
    bias_filler {
      type: "constant"
      value: 0
    }
  }
}
layer {
  name: "prelu1_2"
  type: "PReLU"
  bottom: "conv1_2"
  top: "conv1_2"
}
layer {
  name: "pool1_2"
  type: "Pooling"
  bottom: "conv1_2"
  top: "pool1_2"
  pooling_param {
    pool: MAX
    kernel_size: 3
    stride: 2
  }
}
layer {
  name: "conv2_2"
  type: "Convolution"
  bottom: "pool1_2"
  top: "conv2_2"
  param {
    lr_mult: 1
    decay_mult: 1
  }
  param {
    lr_mult: 2
    decay_mult: 1
  }
  convolution_param {
    num_output: 48
    kernel_size: 3
    stride: 1
    weight_filler {
      type: "xavier"
    }
    bias_filler {
      type: "constant"
      value: 0
    }
  }
}
layer {
  name: "prelu2_2"
  type: "PReLU"
  bottom: "conv2_2"
  top: "conv2_2"
}
layer {
  name: "pool2_2"
  type: "Pooling"
  bottom: "conv2_2"
  top: "pool2_2"
  pooling_param {
    pool: MAX
    kernel_size: 3
    stride: 2
  }
}
layer {
  name: "conv3_2"
  type: "Convolution"
  bottom: "pool2_2"
  top: "conv3_2"
  param {
    lr_mult: 1
    decay_mult: 1
  }
  param {
    lr_mult: 2
    decay_mult: 1
  }
  convolution_param {
    num_output: 64
    kernel_size: 2
    stride: 1
    weight_filler {
      type: "xavier"
    }
    bias_filler {
      type: "constant"
      value: 0
    }
  }
}
layer {
  name: "prelu3_2"
  type: "PReLU"
  bottom: "conv3_2"
  top: "conv3_2"
}
layer {
  name: "conv1_3"
  type: "Convolution"
  bottom: "data243"
  top: "conv1_3"
  param {
    lr_mult: 1
    decay_mult: 1
  }
  param {
    lr_mult: 2
    decay_mult: 1
  }
  convolution_param {
    num_output: 28
    kernel_size: 3
    stride: 1
    weight_filler {
      type: "xavier"
    }
    bias_filler {
      type: "constant"
      value: 0
    }
  }
}
layer {
  name: "prelu1_3"
  type: "PReLU"
  bottom: "conv1_3"
  top: "conv1_3"
}
layer {
  name: "pool1_3"
  type: "Pooling"
  bottom: "conv1_3"
  top: "pool1_3"
  pooling_param {
    pool: MAX
    kernel_size: 3
    stride: 2
  }
}
layer {
  name: "conv2_3"
  type: "Convolution"
  bottom: "pool1_3"
  top: "conv2_3"
  param {
    lr_mult: 1
    decay_mult: 1
  }
  param {
    lr_mult: 2
    decay_mult: 1
  }
  convolution_param {
    num_output: 48
    kernel_size: 3
    stride: 1
    weight_filler {
      type: "xavier"
    }
    bias_filler {
      type: "constant"
      value: 0
    }
  }
}
layer {
  name: "prelu2_3"
  type: "PReLU"
  bottom: "conv2_3"
  top: "conv2_3"
}
layer {
  name: "pool2_3"
  type: "Pooling"
  bottom: "conv2_3"
  top: "pool2_3"
  pooling_param {
    pool: MAX
    kernel_size: 3
    stride: 2
  }
}
layer {
  name: "conv3_3"
  type: "Convolution"
  bottom: "pool2_3"
  top: "conv3_3"
  param {
    lr_mult: 1
    decay_mult: 1
  }
  param {
    lr_mult: 2
    decay_mult: 1
  }
  convolution_param {
    num_output: 64
    kernel_size: 2
    stride: 1
    weight_filler {
      type: "xavier"
    }
    bias_filler {
      type: "constant"
      value: 0
    }
  }
}
layer {
  name: "prelu3_3"
  type: "PReLU"
  bottom: "conv3_3"
  top: "conv3_3"
}
layer {
  name: "conv1_4"
  type: "Convolution"
  bottom: "data244"
  top: "conv1_4"
  param {
    lr_mult: 1
    decay_mult: 1
  }
  param {
    lr_mult: 2
    decay_mult: 1
  }
  convolution_param {
    num_output: 28
    kernel_size: 3
    stride: 1
    weight_filler {
      type: "xavier"
    }
    bias_filler {
      type: "constant"
      value: 0
    }
  }
}
layer {
  name: "prelu1_4"
  type: "PReLU"
  bottom: "conv1_4"
  top: "conv1_4"
}
layer {
  name: "pool1_4"
  type: "Pooling"
  bottom: "conv1_4"
  top: "pool1_4"
  pooling_param {
    pool: MAX
    kernel_size: 3
    stride: 2
  }
}
layer {
  name: "conv2_4"
  type: "Convolution"
  bottom: "pool1_4"
  top: "conv2_4"
  param {
    lr_mult: 1
    decay_mult: 1
  }
  param {
    lr_mult: 2
    decay_mult: 1
  }
  convolution_param {
    num_output: 48
    kernel_size: 3
    stride: 1
    weight_filler {
      type: "xavier"
    }
    bias_filler {
      type: "constant"
      value: 0
    }
  }
}
layer {
  name: "prelu2_4"
  type: "PReLU"
  bottom: "conv2_4"
  top: "conv2_4"
}
layer {
  name: "pool2_4"
  type: "Pooling"
  bottom: "conv2_4"
  top: "pool2_4"
  pooling_param {
    pool: MAX
    kernel_size: 3
    stride: 2
  }
}
layer {
  name: "conv3_4"
  type: "Convolution"
  bottom: "pool2_4"
  top: "conv3_4"
  param {
    lr_mult: 1
    decay_mult: 1
  }
  param {
    lr_mult: 2
    decay_mult: 1
  }
  convolution_param {
    num_output: 64
    kernel_size: 2
    stride: 1
    weight_filler {
      type: "xavier"
    }
    bias_filler {
      type: "constant"
      value: 0
    }
  }
}
layer {
  name: "prelu3_4"
  type: "PReLU"
  bottom: "conv3_4"
  top: "conv3_4"
}
layer {
  name: "conv1_5"
  type: "Convolution"
  bottom: "data245"
  top: "conv1_5"
  param {
    lr_mult: 1
    decay_mult: 1
  }
  param {
    lr_mult: 2
    decay_mult: 1
  }
  convolution_param {
    num_output: 28
    kernel_size: 3
    stride: 1
    weight_filler {
      type: "xavier"
    }
    bias_filler {
      type: "constant"
      value: 0
    }
  }
}
layer {
  name: "prelu1_5"
  type: "PReLU"
  bottom: "conv1_5"
  top: "conv1_5"
}
layer {
  name: "pool1_5"
  type: "Pooling"
  bottom: "conv1_5"
  top: "pool1_5"
  pooling_param {
    pool: MAX
    kernel_size: 3
    stride: 2
  }
}
layer {
  name: "conv2_5"
  type: "Convolution"
  bottom: "pool1_5"
  top: "conv2_5"
  param {
    lr_mult: 1
    decay_mult: 1
  }
  param {
    lr_mult: 2
    decay_mult: 1
  }
  convolution_param {
    num_output: 48
    kernel_size: 3
    stride: 1
    weight_filler {
      type: "xavier"
    }
    bias_filler {
      type: "constant"
      value: 0
    }
  }
}
layer {
  name: "prelu2_5"
  type: "PReLU"
  bottom: "conv2_5"
  top: "conv2_5"
}
layer {
  name: "pool2_5"
  type: "Pooling"
  bottom: "conv2_5"
  top: "pool2_5"
  pooling_param {
    pool: MAX
    kernel_size: 3
    stride: 2
  }
}
layer {
  name: "conv3_5"
  type: "Convolution"
  bottom: "pool2_5"
  top: "conv3_5"
  param {
    lr_mult: 1
    decay_mult: 1
  }
  param {
    lr_mult: 2
    decay_mult: 1
  }
  convolution_param {
    num_output: 64
    kernel_size: 2
    stride: 1
    weight_filler {
      type: "xavier"
    }
    bias_filler {
      type: "constant"
      value: 0
    }
  }
}
layer {
  name: "prelu3_5"
  type: "PReLU"
  bottom: "conv3_5"
  top: "conv3_5"
}
layer {
  name: "concat"
  type: "Concat"
  bottom: "conv3_1"
  bottom: "conv3_2"
  bottom: "conv3_3"
  bottom: "conv3_4"
  bottom: "conv3_5"
  top: "conv3"
  concat_param {
    axis: 1
  }
}
layer {
  name: "fc4"
  type: "InnerProduct"
  bottom: "conv3"
  top: "fc4"
  param {
    lr_mult: 1
    decay_mult: 1
  }
  param {
    lr_mult: 2
    decay_mult: 1
  }
  inner_product_param {
    num_output: 256
    weight_filler {
      type: "xavier"
    }
    bias_filler {
      type: "constant"
      value: 0
    }
  }
}
layer {
  name: "prelu4"
  type: "PReLU"
  bottom: "fc4"
  top: "fc4"
}
layer {
  name: "fc4_1"
  type: "InnerProduct"
  bottom: "fc4"
  top: "fc4_1"
  param {
    lr_mult: 1
    decay_mult: 1
  }
  param {
    lr_mult: 2
    decay_mult: 1
  }
  inner_product_param {
    num_output: 64
    weight_filler {
      type: "xavier"
    }
    bias_filler {
      type: "constant"
      value: 0
    }
  }
}
layer {
  name: "prelu4_1"
  type: "PReLU"
  bottom: "fc4_1"
  top: "fc4_1"
}
layer {
  name: "fc5_1"
  type: "InnerProduct"
  bottom: "fc4_1"
  top: "fc5_1"
  param {
    lr_mult: 1
    decay_mult: 1
  }
  param {
    lr_mult: 2
    decay_mult: 1
  }
  inner_product_param {
    num_output: 2
    weight_filler {
      type: "xavier"
    }
    bias_filler {
      type: "constant"
      value: 0
    }
  }
}
layer {
  name: "fc4_2"
  type: "InnerProduct"
  bottom: "fc4"
  top: "fc4_2"
  param {
    lr_mult: 1
    decay_mult: 1
  }
  param {
    lr_mult: 2
    decay_mult: 1
  }
  inner_product_param {
    num_output: 64
    weight_filler {
      type: "xavier"
    }
    bias_filler {
      type: "constant"
      value: 0
    }
  }
}
layer {
  name: "prelu4_2"
  type: "PReLU"
  bottom: "fc4_2"
  top: "fc4_2"
}
layer {
  name: "fc5_2"
  type: "InnerProduct"
  bottom: "fc4_2"
  top: "fc5_2"
  param {
    lr_mult: 1
    decay_mult: 1
  }
  param {
    lr_mult: 2
    decay_mult: 1
  }
  inner_product_param {
    num_output: 2
    weight_filler {
      type: "xavier"
    }
    bias_filler {
      type: "constant"
      value: 0
    }
  }
}
layer {
  name: "fc4_3"
  type: "InnerProduct"
  bottom: "fc4"
  top: "fc4_3"
  param {
    lr_mult: 1
    decay_mult: 1
  }
  param {
    lr_mult: 2
    decay_mult: 1
  }
  inner_product_param {
    num_output: 64
    weight_filler {
      type: "xavier"
    }
    bias_filler {
      type: "constant"
      value: 0
    }
  }
}
layer {
  name: "prelu4_3"
  type: "PReLU"
  bottom: "fc4_3"
  top: "fc4_3"
}
layer {
  name: "fc5_3"
  type: "InnerProduct"
  bottom: "fc4_3"
  top: "fc5_3"
  param {
    lr_mult: 1
    decay_mult: 1
  }
  param {
    lr_mult: 2
    decay_mult: 1
  }
  inner_product_param {
    num_output: 2
    weight_filler {
      type: "xavier"
    }
    bias_filler {
      type: "constant"
      value: 0
    }
  }
}
layer {
  name: "fc4_4"
  type: "InnerProduct"
  bottom: "fc4"
  top: "fc4_4"
  param {
    lr_mult: 1
    decay_mult: 1
  }
  param {
    lr_mult: 2
    decay_mult: 1
  }
  inner_product_param {
    num_output: 64
    weight_filler {
      type: "xavier"
    }
    bias_filler {
      type: "constant"
      value: 0
    }
  }
}
layer {
  name: "prelu4_4"
  type: "PReLU"
  bottom: "fc4_4"
  top: "fc4_4"
}
layer {
  name: "fc5_4"
  type: "InnerProduct"
  bottom: "fc4_4"
  top: "fc5_4"
  param {
    lr_mult: 1
    decay_mult: 1
  }
  param {
    lr_mult: 2
    decay_mult: 1
  }
  inner_product_param {
    num_output: 2
    weight_filler {
      type: "xavier"
    }
    bias_filler {
      type: "constant"
      value: 0
    }
  }
}
layer {
  name: "fc4_5"
  type: "InnerProduct"
  bottom: "fc4"
  top: "fc4_5"
  param {
    lr_mult: 1
    decay_mult: 1
  }
  param {
    lr_mult: 2
    decay_mult: 1
  }
  inner_product_param {
    num_output: 64
    weight_filler {
      type: "xavier"
    }
    bias_filler {
      type: "constant"
      value: 0
    }
  }
}
layer {
  name: "prelu4_5"
  type: "PReLU"
  bottom: "fc4_5"
  top: "fc4_5"
}
layer {
  name: "fc5_5"
  type: "InnerProduct"
  bottom: "fc4_5"
  top: "fc5_5"
  param {
    lr_mult: 1
    decay_mult: 1
  }
  param {
    lr_mult: 2
    decay_mult: 1
  }
  inner_product_param {
    num_output: 2
    weight_filler {
      type: "xavier"
    }
    bias_filler {
      type: "constant"
      value: 0
    }
  }
}
I0612 14:36:13.592581 39443 net.cpp:413] Input 0 -> data
I0612 14:36:13.592644 39443 layer_factory.hpp:77] Creating layer slicer_data
I0612 14:36:13.592655 39443 net.cpp:106] Creating Layer slicer_data
I0612 14:36:13.592660 39443 net.cpp:454] slicer_data <- data
I0612 14:36:13.592666 39443 net.cpp:411] slicer_data -> data241
I0612 14:36:13.592674 39443 net.cpp:411] slicer_data -> data242
I0612 14:36:13.592681 39443 net.cpp:411] slicer_data -> data243
I0612 14:36:13.592687 39443 net.cpp:411] slicer_data -> data244
I0612 14:36:13.592694 39443 net.cpp:411] slicer_data -> data245
I0612 14:36:13.592806 39443 net.cpp:150] Setting up slicer_data
I0612 14:36:13.592815 39443 net.cpp:157] Top shape: 1 3 24 24 (1728)
I0612 14:36:13.592820 39443 net.cpp:157] Top shape: 1 3 24 24 (1728)
I0612 14:36:13.592824 39443 net.cpp:157] Top shape: 1 3 24 24 (1728)
I0612 14:36:13.592829 39443 net.cpp:157] Top shape: 1 3 24 24 (1728)
I0612 14:36:13.592833 39443 net.cpp:157] Top shape: 1 3 24 24 (1728)
I0612 14:36:13.592836 39443 net.cpp:165] Memory required for data: 34560
I0612 14:36:13.592840 39443 layer_factory.hpp:77] Creating layer conv1_1
I0612 14:36:13.592850 39443 net.cpp:106] Creating Layer conv1_1
I0612 14:36:13.592854 39443 net.cpp:454] conv1_1 <- data241
I0612 14:36:13.592861 39443 net.cpp:411] conv1_1 -> conv1_1
I0612 14:36:13.593243 39443 net.cpp:150] Setting up conv1_1
I0612 14:36:13.593253 39443 net.cpp:157] Top shape: 1 28 22 22 (13552)
I0612 14:36:13.593256 39443 net.cpp:165] Memory required for data: 88768
I0612 14:36:13.593266 39443 layer_factory.hpp:77] Creating layer prelu1_1
I0612 14:36:13.593273 39443 net.cpp:106] Creating Layer prelu1_1
I0612 14:36:13.593278 39443 net.cpp:454] prelu1_1 <- conv1_1
I0612 14:36:13.593283 39443 net.cpp:397] prelu1_1 -> conv1_1 (in-place)
I0612 14:36:13.593433 39443 net.cpp:150] Setting up prelu1_1
I0612 14:36:13.593441 39443 net.cpp:157] Top shape: 1 28 22 22 (13552)
I0612 14:36:13.593444 39443 net.cpp:165] Memory required for data: 142976
I0612 14:36:13.593451 39443 layer_factory.hpp:77] Creating layer pool1_1
I0612 14:36:13.593458 39443 net.cpp:106] Creating Layer pool1_1
I0612 14:36:13.593462 39443 net.cpp:454] pool1_1 <- conv1_1
I0612 14:36:13.593467 39443 net.cpp:411] pool1_1 -> pool1_1
I0612 14:36:13.593521 39443 net.cpp:150] Setting up pool1_1
I0612 14:36:13.593528 39443 net.cpp:157] Top shape: 1 28 11 11 (3388)
I0612 14:36:13.593531 39443 net.cpp:165] Memory required for data: 156528
I0612 14:36:13.593535 39443 layer_factory.hpp:77] Creating layer conv2_1
I0612 14:36:13.593544 39443 net.cpp:106] Creating Layer conv2_1
I0612 14:36:13.593549 39443 net.cpp:454] conv2_1 <- pool1_1
I0612 14:36:13.593555 39443 net.cpp:411] conv2_1 -> conv2_1
I0612 14:36:13.594020 39443 net.cpp:150] Setting up conv2_1
I0612 14:36:13.594030 39443 net.cpp:157] Top shape: 1 48 9 9 (3888)
I0612 14:36:13.594034 39443 net.cpp:165] Memory required for data: 172080
I0612 14:36:13.594043 39443 layer_factory.hpp:77] Creating layer prelu2_1
I0612 14:36:13.594048 39443 net.cpp:106] Creating Layer prelu2_1
I0612 14:36:13.594053 39443 net.cpp:454] prelu2_1 <- conv2_1
I0612 14:36:13.594058 39443 net.cpp:397] prelu2_1 -> conv2_1 (in-place)
I0612 14:36:13.594189 39443 net.cpp:150] Setting up prelu2_1
I0612 14:36:13.594203 39443 net.cpp:157] Top shape: 1 48 9 9 (3888)
I0612 14:36:13.594207 39443 net.cpp:165] Memory required for data: 187632
I0612 14:36:13.594213 39443 layer_factory.hpp:77] Creating layer pool2_1
I0612 14:36:13.594218 39443 net.cpp:106] Creating Layer pool2_1
I0612 14:36:13.594228 39443 net.cpp:454] pool2_1 <- conv2_1
I0612 14:36:13.594233 39443 net.cpp:411] pool2_1 -> pool2_1
I0612 14:36:13.594286 39443 net.cpp:150] Setting up pool2_1
I0612 14:36:13.594293 39443 net.cpp:157] Top shape: 1 48 4 4 (768)
I0612 14:36:13.594296 39443 net.cpp:165] Memory required for data: 190704
I0612 14:36:13.594300 39443 layer_factory.hpp:77] Creating layer conv3_1
I0612 14:36:13.594308 39443 net.cpp:106] Creating Layer conv3_1
I0612 14:36:13.594311 39443 net.cpp:454] conv3_1 <- pool2_1
I0612 14:36:13.594318 39443 net.cpp:411] conv3_1 -> conv3_1
I0612 14:36:13.594794 39443 net.cpp:150] Setting up conv3_1
I0612 14:36:13.594804 39443 net.cpp:157] Top shape: 1 64 3 3 (576)
I0612 14:36:13.594806 39443 net.cpp:165] Memory required for data: 193008
I0612 14:36:13.594813 39443 layer_factory.hpp:77] Creating layer prelu3_1
I0612 14:36:13.594820 39443 net.cpp:106] Creating Layer prelu3_1
I0612 14:36:13.594825 39443 net.cpp:454] prelu3_1 <- conv3_1
I0612 14:36:13.594830 39443 net.cpp:397] prelu3_1 -> conv3_1 (in-place)
I0612 14:36:13.594972 39443 net.cpp:150] Setting up prelu3_1
I0612 14:36:13.594980 39443 net.cpp:157] Top shape: 1 64 3 3 (576)
I0612 14:36:13.594985 39443 net.cpp:165] Memory required for data: 195312
I0612 14:36:13.594991 39443 layer_factory.hpp:77] Creating layer conv1_2
I0612 14:36:13.595000 39443 net.cpp:106] Creating Layer conv1_2
I0612 14:36:13.595003 39443 net.cpp:454] conv1_2 <- data242
I0612 14:36:13.595010 39443 net.cpp:411] conv1_2 -> conv1_2
I0612 14:36:13.595391 39443 net.cpp:150] Setting up conv1_2
I0612 14:36:13.595401 39443 net.cpp:157] Top shape: 1 28 22 22 (13552)
I0612 14:36:13.595403 39443 net.cpp:165] Memory required for data: 249520
I0612 14:36:13.595410 39443 layer_factory.hpp:77] Creating layer prelu1_2
I0612 14:36:13.595417 39443 net.cpp:106] Creating Layer prelu1_2
I0612 14:36:13.595420 39443 net.cpp:454] prelu1_2 <- conv1_2
I0612 14:36:13.595425 39443 net.cpp:397] prelu1_2 -> conv1_2 (in-place)
I0612 14:36:13.595569 39443 net.cpp:150] Setting up prelu1_2
I0612 14:36:13.595577 39443 net.cpp:157] Top shape: 1 28 22 22 (13552)
I0612 14:36:13.595580 39443 net.cpp:165] Memory required for data: 303728
I0612 14:36:13.595585 39443 layer_factory.hpp:77] Creating layer pool1_2
I0612 14:36:13.595592 39443 net.cpp:106] Creating Layer pool1_2
I0612 14:36:13.595595 39443 net.cpp:454] pool1_2 <- conv1_2
I0612 14:36:13.595602 39443 net.cpp:411] pool1_2 -> pool1_2
I0612 14:36:13.595654 39443 net.cpp:150] Setting up pool1_2
I0612 14:36:13.595659 39443 net.cpp:157] Top shape: 1 28 11 11 (3388)
I0612 14:36:13.595664 39443 net.cpp:165] Memory required for data: 317280
I0612 14:36:13.595666 39443 layer_factory.hpp:77] Creating layer conv2_2
I0612 14:36:13.595674 39443 net.cpp:106] Creating Layer conv2_2
I0612 14:36:13.595679 39443 net.cpp:454] conv2_2 <- pool1_2
I0612 14:36:13.595685 39443 net.cpp:411] conv2_2 -> conv2_2
I0612 14:36:13.596138 39443 net.cpp:150] Setting up conv2_2
I0612 14:36:13.596146 39443 net.cpp:157] Top shape: 1 48 9 9 (3888)
I0612 14:36:13.596149 39443 net.cpp:165] Memory required for data: 332832
I0612 14:36:13.596155 39443 layer_factory.hpp:77] Creating layer prelu2_2
I0612 14:36:13.596161 39443 net.cpp:106] Creating Layer prelu2_2
I0612 14:36:13.596165 39443 net.cpp:454] prelu2_2 <- conv2_2
I0612 14:36:13.596171 39443 net.cpp:397] prelu2_2 -> conv2_2 (in-place)
I0612 14:36:13.596308 39443 net.cpp:150] Setting up prelu2_2
I0612 14:36:13.596315 39443 net.cpp:157] Top shape: 1 48 9 9 (3888)
I0612 14:36:13.596319 39443 net.cpp:165] Memory required for data: 348384
I0612 14:36:13.596324 39443 layer_factory.hpp:77] Creating layer pool2_2
I0612 14:36:13.596329 39443 net.cpp:106] Creating Layer pool2_2
I0612 14:36:13.596333 39443 net.cpp:454] pool2_2 <- conv2_2
I0612 14:36:13.596348 39443 net.cpp:411] pool2_2 -> pool2_2
I0612 14:36:13.596403 39443 net.cpp:150] Setting up pool2_2
I0612 14:36:13.596410 39443 net.cpp:157] Top shape: 1 48 4 4 (768)
I0612 14:36:13.596412 39443 net.cpp:165] Memory required for data: 351456
I0612 14:36:13.596416 39443 layer_factory.hpp:77] Creating layer conv3_2
I0612 14:36:13.596423 39443 net.cpp:106] Creating Layer conv3_2
I0612 14:36:13.596427 39443 net.cpp:454] conv3_2 <- pool2_2
I0612 14:36:13.596433 39443 net.cpp:411] conv3_2 -> conv3_2
I0612 14:36:13.596906 39443 net.cpp:150] Setting up conv3_2
I0612 14:36:13.596916 39443 net.cpp:157] Top shape: 1 64 3 3 (576)
I0612 14:36:13.596920 39443 net.cpp:165] Memory required for data: 353760
I0612 14:36:13.596928 39443 layer_factory.hpp:77] Creating layer prelu3_2
I0612 14:36:13.596936 39443 net.cpp:106] Creating Layer prelu3_2
I0612 14:36:13.596940 39443 net.cpp:454] prelu3_2 <- conv3_2
I0612 14:36:13.596947 39443 net.cpp:397] prelu3_2 -> conv3_2 (in-place)
I0612 14:36:13.597092 39443 net.cpp:150] Setting up prelu3_2
I0612 14:36:13.597101 39443 net.cpp:157] Top shape: 1 64 3 3 (576)
I0612 14:36:13.597105 39443 net.cpp:165] Memory required for data: 356064
I0612 14:36:13.597110 39443 layer_factory.hpp:77] Creating layer conv1_3
I0612 14:36:13.597117 39443 net.cpp:106] Creating Layer conv1_3
I0612 14:36:13.597121 39443 net.cpp:454] conv1_3 <- data243
I0612 14:36:13.597129 39443 net.cpp:411] conv1_3 -> conv1_3
I0612 14:36:13.597515 39443 net.cpp:150] Setting up conv1_3
I0612 14:36:13.597524 39443 net.cpp:157] Top shape: 1 28 22 22 (13552)
I0612 14:36:13.597528 39443 net.cpp:165] Memory required for data: 410272
I0612 14:36:13.597534 39443 layer_factory.hpp:77] Creating layer prelu1_3
I0612 14:36:13.597540 39443 net.cpp:106] Creating Layer prelu1_3
I0612 14:36:13.597544 39443 net.cpp:454] prelu1_3 <- conv1_3
I0612 14:36:13.597549 39443 net.cpp:397] prelu1_3 -> conv1_3 (in-place)
I0612 14:36:13.597697 39443 net.cpp:150] Setting up prelu1_3
I0612 14:36:13.597703 39443 net.cpp:157] Top shape: 1 28 22 22 (13552)
I0612 14:36:13.597707 39443 net.cpp:165] Memory required for data: 464480
I0612 14:36:13.597712 39443 layer_factory.hpp:77] Creating layer pool1_3
I0612 14:36:13.597718 39443 net.cpp:106] Creating Layer pool1_3
I0612 14:36:13.597721 39443 net.cpp:454] pool1_3 <- conv1_3
I0612 14:36:13.597726 39443 net.cpp:411] pool1_3 -> pool1_3
I0612 14:36:13.597779 39443 net.cpp:150] Setting up pool1_3
I0612 14:36:13.597786 39443 net.cpp:157] Top shape: 1 28 11 11 (3388)
I0612 14:36:13.597790 39443 net.cpp:165] Memory required for data: 478032
I0612 14:36:13.597792 39443 layer_factory.hpp:77] Creating layer conv2_3
I0612 14:36:13.597800 39443 net.cpp:106] Creating Layer conv2_3
I0612 14:36:13.597805 39443 net.cpp:454] conv2_3 <- pool1_3
I0612 14:36:13.597810 39443 net.cpp:411] conv2_3 -> conv2_3
I0612 14:36:13.598264 39443 net.cpp:150] Setting up conv2_3
I0612 14:36:13.598273 39443 net.cpp:157] Top shape: 1 48 9 9 (3888)
I0612 14:36:13.598275 39443 net.cpp:165] Memory required for data: 493584
I0612 14:36:13.598281 39443 layer_factory.hpp:77] Creating layer prelu2_3
I0612 14:36:13.598287 39443 net.cpp:106] Creating Layer prelu2_3
I0612 14:36:13.598291 39443 net.cpp:454] prelu2_3 <- conv2_3
I0612 14:36:13.598296 39443 net.cpp:397] prelu2_3 -> conv2_3 (in-place)
I0612 14:36:13.598438 39443 net.cpp:150] Setting up prelu2_3
I0612 14:36:13.598445 39443 net.cpp:157] Top shape: 1 48 9 9 (3888)
I0612 14:36:13.598455 39443 net.cpp:165] Memory required for data: 509136
I0612 14:36:13.598461 39443 layer_factory.hpp:77] Creating layer pool2_3
I0612 14:36:13.598467 39443 net.cpp:106] Creating Layer pool2_3
I0612 14:36:13.598471 39443 net.cpp:454] pool2_3 <- conv2_3
I0612 14:36:13.598476 39443 net.cpp:411] pool2_3 -> pool2_3
I0612 14:36:13.598531 39443 net.cpp:150] Setting up pool2_3
I0612 14:36:13.598537 39443 net.cpp:157] Top shape: 1 48 4 4 (768)
I0612 14:36:13.598541 39443 net.cpp:165] Memory required for data: 512208
I0612 14:36:13.598543 39443 layer_factory.hpp:77] Creating layer conv3_3
I0612 14:36:13.598551 39443 net.cpp:106] Creating Layer conv3_3
I0612 14:36:13.598562 39443 net.cpp:454] conv3_3 <- pool2_3
I0612 14:36:13.598569 39443 net.cpp:411] conv3_3 -> conv3_3
I0612 14:36:13.599030 39443 net.cpp:150] Setting up conv3_3
I0612 14:36:13.599040 39443 net.cpp:157] Top shape: 1 64 3 3 (576)
I0612 14:36:13.599042 39443 net.cpp:165] Memory required for data: 514512
I0612 14:36:13.599050 39443 layer_factory.hpp:77] Creating layer prelu3_3
I0612 14:36:13.599054 39443 net.cpp:106] Creating Layer prelu3_3
I0612 14:36:13.599059 39443 net.cpp:454] prelu3_3 <- conv3_3
I0612 14:36:13.599064 39443 net.cpp:397] prelu3_3 -> conv3_3 (in-place)
I0612 14:36:13.599205 39443 net.cpp:150] Setting up prelu3_3
I0612 14:36:13.599211 39443 net.cpp:157] Top shape: 1 64 3 3 (576)
I0612 14:36:13.599215 39443 net.cpp:165] Memory required for data: 516816
I0612 14:36:13.599220 39443 layer_factory.hpp:77] Creating layer conv1_4
I0612 14:36:13.599228 39443 net.cpp:106] Creating Layer conv1_4
I0612 14:36:13.599232 39443 net.cpp:454] conv1_4 <- data244
I0612 14:36:13.599239 39443 net.cpp:411] conv1_4 -> conv1_4
I0612 14:36:13.599638 39443 net.cpp:150] Setting up conv1_4
I0612 14:36:13.599647 39443 net.cpp:157] Top shape: 1 28 22 22 (13552)
I0612 14:36:13.599650 39443 net.cpp:165] Memory required for data: 571024
I0612 14:36:13.599656 39443 layer_factory.hpp:77] Creating layer prelu1_4
I0612 14:36:13.599663 39443 net.cpp:106] Creating Layer prelu1_4
I0612 14:36:13.599666 39443 net.cpp:454] prelu1_4 <- conv1_4
I0612 14:36:13.599671 39443 net.cpp:397] prelu1_4 -> conv1_4 (in-place)
I0612 14:36:13.599818 39443 net.cpp:150] Setting up prelu1_4
I0612 14:36:13.599825 39443 net.cpp:157] Top shape: 1 28 22 22 (13552)
I0612 14:36:13.599829 39443 net.cpp:165] Memory required for data: 625232
I0612 14:36:13.599834 39443 layer_factory.hpp:77] Creating layer pool1_4
I0612 14:36:13.599840 39443 net.cpp:106] Creating Layer pool1_4
I0612 14:36:13.599843 39443 net.cpp:454] pool1_4 <- conv1_4
I0612 14:36:13.599849 39443 net.cpp:411] pool1_4 -> pool1_4
I0612 14:36:13.599901 39443 net.cpp:150] Setting up pool1_4
I0612 14:36:13.599908 39443 net.cpp:157] Top shape: 1 28 11 11 (3388)
I0612 14:36:13.599911 39443 net.cpp:165] Memory required for data: 638784
I0612 14:36:13.599915 39443 layer_factory.hpp:77] Creating layer conv2_4
I0612 14:36:13.599922 39443 net.cpp:106] Creating Layer conv2_4
I0612 14:36:13.599926 39443 net.cpp:454] conv2_4 <- pool1_4
I0612 14:36:13.599932 39443 net.cpp:411] conv2_4 -> conv2_4
I0612 14:36:13.600389 39443 net.cpp:150] Setting up conv2_4
I0612 14:36:13.600396 39443 net.cpp:157] Top shape: 1 48 9 9 (3888)
I0612 14:36:13.600400 39443 net.cpp:165] Memory required for data: 654336
I0612 14:36:13.600406 39443 layer_factory.hpp:77] Creating layer prelu2_4
I0612 14:36:13.600412 39443 net.cpp:106] Creating Layer prelu2_4
I0612 14:36:13.600416 39443 net.cpp:454] prelu2_4 <- conv2_4
I0612 14:36:13.600421 39443 net.cpp:397] prelu2_4 -> conv2_4 (in-place)
I0612 14:36:13.600561 39443 net.cpp:150] Setting up prelu2_4
I0612 14:36:13.600569 39443 net.cpp:157] Top shape: 1 48 9 9 (3888)
I0612 14:36:13.600571 39443 net.cpp:165] Memory required for data: 669888
I0612 14:36:13.600579 39443 layer_factory.hpp:77] Creating layer pool2_4
I0612 14:36:13.600586 39443 net.cpp:106] Creating Layer pool2_4
I0612 14:36:13.600589 39443 net.cpp:454] pool2_4 <- conv2_4
I0612 14:36:13.600595 39443 net.cpp:411] pool2_4 -> pool2_4
I0612 14:36:13.600648 39443 net.cpp:150] Setting up pool2_4
I0612 14:36:13.600654 39443 net.cpp:157] Top shape: 1 48 4 4 (768)
I0612 14:36:13.600657 39443 net.cpp:165] Memory required for data: 672960
I0612 14:36:13.600661 39443 layer_factory.hpp:77] Creating layer conv3_4
I0612 14:36:13.600668 39443 net.cpp:106] Creating Layer conv3_4
I0612 14:36:13.600672 39443 net.cpp:454] conv3_4 <- pool2_4
I0612 14:36:13.600678 39443 net.cpp:411] conv3_4 -> conv3_4
I0612 14:36:13.601137 39443 net.cpp:150] Setting up conv3_4
I0612 14:36:13.601146 39443 net.cpp:157] Top shape: 1 64 3 3 (576)
I0612 14:36:13.601150 39443 net.cpp:165] Memory required for data: 675264
I0612 14:36:13.601155 39443 layer_factory.hpp:77] Creating layer prelu3_4
I0612 14:36:13.601168 39443 net.cpp:106] Creating Layer prelu3_4
I0612 14:36:13.601178 39443 net.cpp:454] prelu3_4 <- conv3_4
I0612 14:36:13.601183 39443 net.cpp:397] prelu3_4 -> conv3_4 (in-place)
I0612 14:36:13.601325 39443 net.cpp:150] Setting up prelu3_4
I0612 14:36:13.601333 39443 net.cpp:157] Top shape: 1 64 3 3 (576)
I0612 14:36:13.601336 39443 net.cpp:165] Memory required for data: 677568
I0612 14:36:13.601342 39443 layer_factory.hpp:77] Creating layer conv1_5
I0612 14:36:13.601351 39443 net.cpp:106] Creating Layer conv1_5
I0612 14:36:13.601356 39443 net.cpp:454] conv1_5 <- data245
I0612 14:36:13.601362 39443 net.cpp:411] conv1_5 -> conv1_5
I0612 14:36:13.601750 39443 net.cpp:150] Setting up conv1_5
I0612 14:36:13.601759 39443 net.cpp:157] Top shape: 1 28 22 22 (13552)
I0612 14:36:13.601763 39443 net.cpp:165] Memory required for data: 731776
I0612 14:36:13.601769 39443 layer_factory.hpp:77] Creating layer prelu1_5
I0612 14:36:13.601774 39443 net.cpp:106] Creating Layer prelu1_5
I0612 14:36:13.601778 39443 net.cpp:454] prelu1_5 <- conv1_5
I0612 14:36:13.601784 39443 net.cpp:397] prelu1_5 -> conv1_5 (in-place)
I0612 14:36:13.601938 39443 net.cpp:150] Setting up prelu1_5
I0612 14:36:13.601945 39443 net.cpp:157] Top shape: 1 28 22 22 (13552)
I0612 14:36:13.601948 39443 net.cpp:165] Memory required for data: 785984
I0612 14:36:13.601953 39443 layer_factory.hpp:77] Creating layer pool1_5
I0612 14:36:13.601960 39443 net.cpp:106] Creating Layer pool1_5
I0612 14:36:13.601963 39443 net.cpp:454] pool1_5 <- conv1_5
I0612 14:36:13.601969 39443 net.cpp:411] pool1_5 -> pool1_5
I0612 14:36:13.602022 39443 net.cpp:150] Setting up pool1_5
I0612 14:36:13.602030 39443 net.cpp:157] Top shape: 1 28 11 11 (3388)
I0612 14:36:13.602032 39443 net.cpp:165] Memory required for data: 799536
I0612 14:36:13.602035 39443 layer_factory.hpp:77] Creating layer conv2_5
I0612 14:36:13.602043 39443 net.cpp:106] Creating Layer conv2_5
I0612 14:36:13.602047 39443 net.cpp:454] conv2_5 <- pool1_5
I0612 14:36:13.602053 39443 net.cpp:411] conv2_5 -> conv2_5
I0612 14:36:13.602520 39443 net.cpp:150] Setting up conv2_5
I0612 14:36:13.602530 39443 net.cpp:157] Top shape: 1 48 9 9 (3888)
I0612 14:36:13.602535 39443 net.cpp:165] Memory required for data: 815088
I0612 14:36:13.602540 39443 layer_factory.hpp:77] Creating layer prelu2_5
I0612 14:36:13.602546 39443 net.cpp:106] Creating Layer prelu2_5
I0612 14:36:13.602550 39443 net.cpp:454] prelu2_5 <- conv2_5
I0612 14:36:13.602556 39443 net.cpp:397] prelu2_5 -> conv2_5 (in-place)
I0612 14:36:13.602699 39443 net.cpp:150] Setting up prelu2_5
I0612 14:36:13.602707 39443 net.cpp:157] Top shape: 1 48 9 9 (3888)
I0612 14:36:13.602710 39443 net.cpp:165] Memory required for data: 830640
I0612 14:36:13.602715 39443 layer_factory.hpp:77] Creating layer pool2_5
I0612 14:36:13.602720 39443 net.cpp:106] Creating Layer pool2_5
I0612 14:36:13.602725 39443 net.cpp:454] pool2_5 <- conv2_5
I0612 14:36:13.602730 39443 net.cpp:411] pool2_5 -> pool2_5
I0612 14:36:13.602782 39443 net.cpp:150] Setting up pool2_5
I0612 14:36:13.602788 39443 net.cpp:157] Top shape: 1 48 4 4 (768)
I0612 14:36:13.602792 39443 net.cpp:165] Memory required for data: 833712
I0612 14:36:13.602795 39443 layer_factory.hpp:77] Creating layer conv3_5
I0612 14:36:13.602803 39443 net.cpp:106] Creating Layer conv3_5
I0612 14:36:13.602807 39443 net.cpp:454] conv3_5 <- pool2_5
I0612 14:36:13.602813 39443 net.cpp:411] conv3_5 -> conv3_5
I0612 14:36:13.603271 39443 net.cpp:150] Setting up conv3_5
I0612 14:36:13.603279 39443 net.cpp:157] Top shape: 1 64 3 3 (576)
I0612 14:36:13.603282 39443 net.cpp:165] Memory required for data: 836016
I0612 14:36:13.603288 39443 layer_factory.hpp:77] Creating layer prelu3_5
I0612 14:36:13.603294 39443 net.cpp:106] Creating Layer prelu3_5
I0612 14:36:13.603298 39443 net.cpp:454] prelu3_5 <- conv3_5
I0612 14:36:13.603304 39443 net.cpp:397] prelu3_5 -> conv3_5 (in-place)
I0612 14:36:13.603451 39443 net.cpp:150] Setting up prelu3_5
I0612 14:36:13.603457 39443 net.cpp:157] Top shape: 1 64 3 3 (576)
I0612 14:36:13.603467 39443 net.cpp:165] Memory required for data: 838320
I0612 14:36:13.603472 39443 layer_factory.hpp:77] Creating layer concat
I0612 14:36:13.603479 39443 net.cpp:106] Creating Layer concat
I0612 14:36:13.603483 39443 net.cpp:454] concat <- conv3_1
I0612 14:36:13.603488 39443 net.cpp:454] concat <- conv3_2
I0612 14:36:13.603493 39443 net.cpp:454] concat <- conv3_3
I0612 14:36:13.603497 39443 net.cpp:454] concat <- conv3_4
I0612 14:36:13.603500 39443 net.cpp:454] concat <- conv3_5
I0612 14:36:13.603507 39443 net.cpp:411] concat -> conv3
I0612 14:36:13.603543 39443 net.cpp:150] Setting up concat
I0612 14:36:13.603549 39443 net.cpp:157] Top shape: 1 320 3 3 (2880)
I0612 14:36:13.603552 39443 net.cpp:165] Memory required for data: 849840
I0612 14:36:13.603555 39443 layer_factory.hpp:77] Creating layer fc4
I0612 14:36:13.603562 39443 net.cpp:106] Creating Layer fc4
I0612 14:36:13.603566 39443 net.cpp:454] fc4 <- conv3
I0612 14:36:13.603572 39443 net.cpp:411] fc4 -> fc4
I0612 14:36:13.610834 39443 net.cpp:150] Setting up fc4
I0612 14:36:13.610855 39443 net.cpp:157] Top shape: 1 256 (256)
I0612 14:36:13.610860 39443 net.cpp:165] Memory required for data: 850864
I0612 14:36:13.610867 39443 layer_factory.hpp:77] Creating layer prelu4
I0612 14:36:13.610875 39443 net.cpp:106] Creating Layer prelu4
I0612 14:36:13.610880 39443 net.cpp:454] prelu4 <- fc4
I0612 14:36:13.610886 39443 net.cpp:397] prelu4 -> fc4 (in-place)
I0612 14:36:13.611012 39443 net.cpp:150] Setting up prelu4
I0612 14:36:13.611021 39443 net.cpp:157] Top shape: 1 256 (256)
I0612 14:36:13.611023 39443 net.cpp:165] Memory required for data: 851888
I0612 14:36:13.611028 39443 layer_factory.hpp:77] Creating layer fc4_prelu4_0_split
I0612 14:36:13.611037 39443 net.cpp:106] Creating Layer fc4_prelu4_0_split
I0612 14:36:13.611040 39443 net.cpp:454] fc4_prelu4_0_split <- fc4
I0612 14:36:13.611047 39443 net.cpp:411] fc4_prelu4_0_split -> fc4_prelu4_0_split_0
I0612 14:36:13.611054 39443 net.cpp:411] fc4_prelu4_0_split -> fc4_prelu4_0_split_1
I0612 14:36:13.611062 39443 net.cpp:411] fc4_prelu4_0_split -> fc4_prelu4_0_split_2
I0612 14:36:13.611068 39443 net.cpp:411] fc4_prelu4_0_split -> fc4_prelu4_0_split_3
I0612 14:36:13.611074 39443 net.cpp:411] fc4_prelu4_0_split -> fc4_prelu4_0_split_4
I0612 14:36:13.611192 39443 net.cpp:150] Setting up fc4_prelu4_0_split
I0612 14:36:13.611199 39443 net.cpp:157] Top shape: 1 256 (256)
I0612 14:36:13.611204 39443 net.cpp:157] Top shape: 1 256 (256)
I0612 14:36:13.611207 39443 net.cpp:157] Top shape: 1 256 (256)
I0612 14:36:13.611212 39443 net.cpp:157] Top shape: 1 256 (256)
I0612 14:36:13.611215 39443 net.cpp:157] Top shape: 1 256 (256)
I0612 14:36:13.611218 39443 net.cpp:165] Memory required for data: 857008
I0612 14:36:13.611222 39443 layer_factory.hpp:77] Creating layer fc4_1
I0612 14:36:13.611232 39443 net.cpp:106] Creating Layer fc4_1
I0612 14:36:13.611237 39443 net.cpp:454] fc4_1 <- fc4_prelu4_0_split_0
I0612 14:36:13.611243 39443 net.cpp:411] fc4_1 -> fc4_1
I0612 14:36:13.611526 39443 net.cpp:150] Setting up fc4_1
I0612 14:36:13.611533 39443 net.cpp:157] Top shape: 1 64 (64)
I0612 14:36:13.611536 39443 net.cpp:165] Memory required for data: 857264
I0612 14:36:13.611543 39443 layer_factory.hpp:77] Creating layer prelu4_1
I0612 14:36:13.611551 39443 net.cpp:106] Creating Layer prelu4_1
I0612 14:36:13.611554 39443 net.cpp:454] prelu4_1 <- fc4_1
I0612 14:36:13.611559 39443 net.cpp:397] prelu4_1 -> fc4_1 (in-place)
I0612 14:36:13.611697 39443 net.cpp:150] Setting up prelu4_1
I0612 14:36:13.611706 39443 net.cpp:157] Top shape: 1 64 (64)
I0612 14:36:13.611708 39443 net.cpp:165] Memory required for data: 857520
I0612 14:36:13.611713 39443 layer_factory.hpp:77] Creating layer fc5_1
I0612 14:36:13.611721 39443 net.cpp:106] Creating Layer fc5_1
I0612 14:36:13.611724 39443 net.cpp:454] fc5_1 <- fc4_1
I0612 14:36:13.611733 39443 net.cpp:411] fc5_1 -> fc5_1
I0612 14:36:13.611901 39443 net.cpp:150] Setting up fc5_1
I0612 14:36:13.611908 39443 net.cpp:157] Top shape: 1 2 (2)
I0612 14:36:13.611912 39443 net.cpp:165] Memory required for data: 857528
I0612 14:36:13.611923 39443 layer_factory.hpp:77] Creating layer fc4_2
I0612 14:36:13.611930 39443 net.cpp:106] Creating Layer fc4_2
I0612 14:36:13.611934 39443 net.cpp:454] fc4_2 <- fc4_prelu4_0_split_1
I0612 14:36:13.611943 39443 net.cpp:411] fc4_2 -> fc4_2
I0612 14:36:13.612215 39443 net.cpp:150] Setting up fc4_2
I0612 14:36:13.612223 39443 net.cpp:157] Top shape: 1 64 (64)
I0612 14:36:13.612227 39443 net.cpp:165] Memory required for data: 857784
I0612 14:36:13.612233 39443 layer_factory.hpp:77] Creating layer prelu4_2
I0612 14:36:13.612238 39443 net.cpp:106] Creating Layer prelu4_2
I0612 14:36:13.612242 39443 net.cpp:454] prelu4_2 <- fc4_2
I0612 14:36:13.612251 39443 net.cpp:397] prelu4_2 -> fc4_2 (in-place)
I0612 14:36:13.612390 39443 net.cpp:150] Setting up prelu4_2
I0612 14:36:13.612396 39443 net.cpp:157] Top shape: 1 64 (64)
I0612 14:36:13.612399 39443 net.cpp:165] Memory required for data: 858040
I0612 14:36:13.612406 39443 layer_factory.hpp:77] Creating layer fc5_2
I0612 14:36:13.612411 39443 net.cpp:106] Creating Layer fc5_2
I0612 14:36:13.612416 39443 net.cpp:454] fc5_2 <- fc4_2
I0612 14:36:13.612422 39443 net.cpp:411] fc5_2 -> fc5_2
I0612 14:36:13.612581 39443 net.cpp:150] Setting up fc5_2
I0612 14:36:13.612588 39443 net.cpp:157] Top shape: 1 2 (2)
I0612 14:36:13.612591 39443 net.cpp:165] Memory required for data: 858048
I0612 14:36:13.612597 39443 layer_factory.hpp:77] Creating layer fc4_3
I0612 14:36:13.612607 39443 net.cpp:106] Creating Layer fc4_3
I0612 14:36:13.612610 39443 net.cpp:454] fc4_3 <- fc4_prelu4_0_split_2
I0612 14:36:13.612617 39443 net.cpp:411] fc4_3 -> fc4_3
I0612 14:36:13.612885 39443 net.cpp:150] Setting up fc4_3
I0612 14:36:13.612893 39443 net.cpp:157] Top shape: 1 64 (64)
I0612 14:36:13.612896 39443 net.cpp:165] Memory required for data: 858304
I0612 14:36:13.612902 39443 layer_factory.hpp:77] Creating layer prelu4_3
I0612 14:36:13.612910 39443 net.cpp:106] Creating Layer prelu4_3
I0612 14:36:13.612915 39443 net.cpp:454] prelu4_3 <- fc4_3
I0612 14:36:13.612920 39443 net.cpp:397] prelu4_3 -> fc4_3 (in-place)
I0612 14:36:13.613067 39443 net.cpp:150] Setting up prelu4_3
I0612 14:36:13.613075 39443 net.cpp:157] Top shape: 1 64 (64)
I0612 14:36:13.613077 39443 net.cpp:165] Memory required for data: 858560
I0612 14:36:13.613082 39443 layer_factory.hpp:77] Creating layer fc5_3
I0612 14:36:13.613091 39443 net.cpp:106] Creating Layer fc5_3
I0612 14:36:13.613095 39443 net.cpp:454] fc5_3 <- fc4_3
I0612 14:36:13.613101 39443 net.cpp:411] fc5_3 -> fc5_3
I0612 14:36:13.613265 39443 net.cpp:150] Setting up fc5_3
I0612 14:36:13.613274 39443 net.cpp:157] Top shape: 1 2 (2)
I0612 14:36:13.613277 39443 net.cpp:165] Memory required for data: 858568
I0612 14:36:13.613284 39443 layer_factory.hpp:77] Creating layer fc4_4
I0612 14:36:13.613291 39443 net.cpp:106] Creating Layer fc4_4
I0612 14:36:13.613294 39443 net.cpp:454] fc4_4 <- fc4_prelu4_0_split_3
I0612 14:36:13.613302 39443 net.cpp:411] fc4_4 -> fc4_4
I0612 14:36:13.613576 39443 net.cpp:150] Setting up fc4_4
I0612 14:36:13.613584 39443 net.cpp:157] Top shape: 1 64 (64)
I0612 14:36:13.613587 39443 net.cpp:165] Memory required for data: 858824
I0612 14:36:13.613605 39443 layer_factory.hpp:77] Creating layer prelu4_4
I0612 14:36:13.613611 39443 net.cpp:106] Creating Layer prelu4_4
I0612 14:36:13.613615 39443 net.cpp:454] prelu4_4 <- fc4_4
I0612 14:36:13.613620 39443 net.cpp:397] prelu4_4 -> fc4_4 (in-place)
I0612 14:36:13.613765 39443 net.cpp:150] Setting up prelu4_4
I0612 14:36:13.613771 39443 net.cpp:157] Top shape: 1 64 (64)
I0612 14:36:13.613775 39443 net.cpp:165] Memory required for data: 859080
I0612 14:36:13.613780 39443 layer_factory.hpp:77] Creating layer fc5_4
I0612 14:36:13.613786 39443 net.cpp:106] Creating Layer fc5_4
I0612 14:36:13.613790 39443 net.cpp:454] fc5_4 <- fc4_4
I0612 14:36:13.613796 39443 net.cpp:411] fc5_4 -> fc5_4
I0612 14:36:13.613955 39443 net.cpp:150] Setting up fc5_4
I0612 14:36:13.613962 39443 net.cpp:157] Top shape: 1 2 (2)
I0612 14:36:13.613965 39443 net.cpp:165] Memory required for data: 859088
I0612 14:36:13.613977 39443 layer_factory.hpp:77] Creating layer fc4_5
I0612 14:36:13.613986 39443 net.cpp:106] Creating Layer fc4_5
I0612 14:36:13.613991 39443 net.cpp:454] fc4_5 <- fc4_prelu4_0_split_4
I0612 14:36:13.613997 39443 net.cpp:411] fc4_5 -> fc4_5
I0612 14:36:13.614269 39443 net.cpp:150] Setting up fc4_5
I0612 14:36:13.614279 39443 net.cpp:157] Top shape: 1 64 (64)
I0612 14:36:13.614282 39443 net.cpp:165] Memory required for data: 859344
I0612 14:36:13.614289 39443 layer_factory.hpp:77] Creating layer prelu4_5
I0612 14:36:13.614295 39443 net.cpp:106] Creating Layer prelu4_5
I0612 14:36:13.614298 39443 net.cpp:454] prelu4_5 <- fc4_5
I0612 14:36:13.614303 39443 net.cpp:397] prelu4_5 -> fc4_5 (in-place)
I0612 14:36:13.614444 39443 net.cpp:150] Setting up prelu4_5
I0612 14:36:13.614470 39443 net.cpp:157] Top shape: 1 64 (64)
I0612 14:36:13.614473 39443 net.cpp:165] Memory required for data: 859600
I0612 14:36:13.614478 39443 layer_factory.hpp:77] Creating layer fc5_5
I0612 14:36:13.614488 39443 net.cpp:106] Creating Layer fc5_5
I0612 14:36:13.614492 39443 net.cpp:454] fc5_5 <- fc4_5
I0612 14:36:13.614498 39443 net.cpp:411] fc5_5 -> fc5_5
I0612 14:36:13.614657 39443 net.cpp:150] Setting up fc5_5
I0612 14:36:13.614665 39443 net.cpp:157] Top shape: 1 2 (2)
I0612 14:36:13.614668 39443 net.cpp:165] Memory required for data: 859608
I0612 14:36:13.614675 39443 net.cpp:228] fc5_5 does not need backward computation.
I0612 14:36:13.614678 39443 net.cpp:228] prelu4_5 does not need backward computation.
I0612 14:36:13.614682 39443 net.cpp:228] fc4_5 does not need backward computation.
I0612 14:36:13.614686 39443 net.cpp:228] fc5_4 does not need backward computation.
…
