USAGE: python detect_image_list.py <img-list-file> <img-root-dir> <save-dir>
['detect_image_list.py', '/workspace/data/qyc/data/MeGlass_ori_classify.lst', '/workspace/data/qyc/data/MeGlass_ori_classify', '/workspace/data/qyc/data/MeGlass_ori_Crop']
WARNING: Logging before InitGoogleLogging() is written to STDERR
I0612 09:43:33.169822 49663 net.cpp:49] Initializing net from parameters: 
name: "PNet"
input: "data"
input_dim: 1
input_dim: 3
input_dim: 12
input_dim: 12
state {
  phase: TEST
}
layer {
  name: "conv1"
  type: "Convolution"
  bottom: "data"
  top: "conv1"
  param {
    lr_mult: 1
    decay_mult: 1
  }
  param {
    lr_mult: 2
    decay_mult: 0
  }
  convolution_param {
    num_output: 10
    kernel_size: 3
    stride: 1
    weight_filler {
      type: "xavier"
    }
    bias_filler {
      type: "constant"
      value: 0
    }
  }
}
layer {
  name: "PReLU1"
  type: "PReLU"
  bottom: "conv1"
  top: "conv1"
}
layer {
  name: "pool1"
  type: "Pooling"
  bottom: "conv1"
  top: "pool1"
  pooling_param {
    pool: MAX
    kernel_size: 2
    stride: 2
  }
}
layer {
  name: "conv2"
  type: "Convolution"
  bottom: "pool1"
  top: "conv2"
  param {
    lr_mult: 1
    decay_mult: 1
  }
  param {
    lr_mult: 2
    decay_mult: 0
  }
  convolution_param {
    num_output: 16
    kernel_size: 3
    stride: 1
    weight_filler {
      type: "xavier"
    }
    bias_filler {
      type: "constant"
      value: 0
    }
  }
}
layer {
  name: "PReLU2"
  type: "PReLU"
  bottom: "conv2"
  top: "conv2"
}
layer {
  name: "conv3"
  type: "Convolution"
  bottom: "conv2"
  top: "conv3"
  param {
    lr_mult: 1
    decay_mult: 1
  }
  param {
    lr_mult: 2
    decay_mult: 0
  }
  convolution_param {
    num_output: 32
    kernel_size: 3
    stride: 1
    weight_filler {
      type: "xavier"
    }
    bias_filler {
      type: "constant"
      value: 0
    }
  }
}
layer {
  name: "PReLU3"
  type: "PReLU"
  bottom: "conv3"
  top: "conv3"
}
layer {
  name: "conv4-1"
  type: "Convolution"
  bottom: "conv3"
  top: "conv4-1"
  param {
    lr_mult: 1
    decay_mult: 1
  }
  param {
    lr_mult: 2
    decay_mult: 0
  }
  convolution_param {
    num_output: 2
    kernel_size: 1
    stride: 1
    weight_filler {
      type: "xavier"
    }
    bias_filler {
      type: "constant"
      value: 0
    }
  }
}
layer {
  name: "conv4-2"
  type: "Convolution"
  bottom: "conv3"
  top: "conv4-2"
  param {
    lr_mult: 1
    decay_mult: 1
  }
  param {
    lr_mult: 2
    decay_mult: 0
  }
  convolution_param {
    num_output: 4
    kernel_size: 1
    stride: 1
    weight_filler {
      type: "xavier"
    }
    bias_filler {
      type: "constant"
      value: 0
    }
  }
}
layer {
  name: "prob1"
  type: "Softmax"
  bottom: "conv4-1"
  top: "prob1"
}
I0612 09:43:33.169939 49663 net.cpp:413] Input 0 -> data
I0612 09:43:33.189677 49663 layer_factory.hpp:77] Creating layer conv1
I0612 09:43:33.189723 49663 net.cpp:106] Creating Layer conv1
I0612 09:43:33.189730 49663 net.cpp:454] conv1 <- data
I0612 09:43:33.189739 49663 net.cpp:411] conv1 -> conv1
I0612 09:43:33.192807 49663 net.cpp:150] Setting up conv1
I0612 09:43:33.192839 49663 net.cpp:157] Top shape: 1 10 10 10 (1000)
I0612 09:43:33.192844 49663 net.cpp:165] Memory required for data: 4000
I0612 09:43:33.192859 49663 layer_factory.hpp:77] Creating layer PReLU1
I0612 09:43:33.192870 49663 net.cpp:106] Creating Layer PReLU1
I0612 09:43:33.192876 49663 net.cpp:454] PReLU1 <- conv1
I0612 09:43:33.192885 49663 net.cpp:397] PReLU1 -> conv1 (in-place)
I0612 09:43:33.192976 49663 net.cpp:150] Setting up PReLU1
I0612 09:43:33.192983 49663 net.cpp:157] Top shape: 1 10 10 10 (1000)
I0612 09:43:33.192987 49663 net.cpp:165] Memory required for data: 8000
I0612 09:43:33.192996 49663 layer_factory.hpp:77] Creating layer pool1
I0612 09:43:33.193004 49663 net.cpp:106] Creating Layer pool1
I0612 09:43:33.193008 49663 net.cpp:454] pool1 <- conv1
I0612 09:43:33.193014 49663 net.cpp:411] pool1 -> pool1
I0612 09:43:33.193050 49663 net.cpp:150] Setting up pool1
I0612 09:43:33.193058 49663 net.cpp:157] Top shape: 1 10 5 5 (250)
I0612 09:43:33.193061 49663 net.cpp:165] Memory required for data: 9000
I0612 09:43:33.193074 49663 layer_factory.hpp:77] Creating layer conv2
I0612 09:43:33.193086 49663 net.cpp:106] Creating Layer conv2
I0612 09:43:33.193090 49663 net.cpp:454] conv2 <- pool1
I0612 09:43:33.193097 49663 net.cpp:411] conv2 -> conv2
I0612 09:43:33.195420 49663 net.cpp:150] Setting up conv2
I0612 09:43:33.195441 49663 net.cpp:157] Top shape: 1 16 3 3 (144)
I0612 09:43:33.195446 49663 net.cpp:165] Memory required for data: 9576
I0612 09:43:33.195457 49663 layer_factory.hpp:77] Creating layer PReLU2
I0612 09:43:33.195466 49663 net.cpp:106] Creating Layer PReLU2
I0612 09:43:33.195471 49663 net.cpp:454] PReLU2 <- conv2
I0612 09:43:33.195477 49663 net.cpp:397] PReLU2 -> conv2 (in-place)
I0612 09:43:33.195559 49663 net.cpp:150] Setting up PReLU2
I0612 09:43:33.195566 49663 net.cpp:157] Top shape: 1 16 3 3 (144)
I0612 09:43:33.195570 49663 net.cpp:165] Memory required for data: 10152
I0612 09:43:33.195576 49663 layer_factory.hpp:77] Creating layer conv3
I0612 09:43:33.195586 49663 net.cpp:106] Creating Layer conv3
I0612 09:43:33.195590 49663 net.cpp:454] conv3 <- conv2
I0612 09:43:33.195597 49663 net.cpp:411] conv3 -> conv3
I0612 09:43:33.197962 49663 net.cpp:150] Setting up conv3
I0612 09:43:33.197983 49663 net.cpp:157] Top shape: 1 32 1 1 (32)
I0612 09:43:33.197986 49663 net.cpp:165] Memory required for data: 10280
I0612 09:43:33.197993 49663 layer_factory.hpp:77] Creating layer PReLU3
I0612 09:43:33.198002 49663 net.cpp:106] Creating Layer PReLU3
I0612 09:43:33.198006 49663 net.cpp:454] PReLU3 <- conv3
I0612 09:43:33.198014 49663 net.cpp:397] PReLU3 -> conv3 (in-place)
I0612 09:43:33.198096 49663 net.cpp:150] Setting up PReLU3
I0612 09:43:33.198102 49663 net.cpp:157] Top shape: 1 32 1 1 (32)
I0612 09:43:33.198105 49663 net.cpp:165] Memory required for data: 10408
I0612 09:43:33.198114 49663 layer_factory.hpp:77] Creating layer conv3_PReLU3_0_split
I0612 09:43:33.198122 49663 net.cpp:106] Creating Layer conv3_PReLU3_0_split
I0612 09:43:33.198127 49663 net.cpp:454] conv3_PReLU3_0_split <- conv3
I0612 09:43:33.198132 49663 net.cpp:411] conv3_PReLU3_0_split -> conv3_PReLU3_0_split_0
I0612 09:43:33.198140 49663 net.cpp:411] conv3_PReLU3_0_split -> conv3_PReLU3_0_split_1
I0612 09:43:33.198174 49663 net.cpp:150] Setting up conv3_PReLU3_0_split
I0612 09:43:33.198180 49663 net.cpp:157] Top shape: 1 32 1 1 (32)
I0612 09:43:33.198185 49663 net.cpp:157] Top shape: 1 32 1 1 (32)
I0612 09:43:33.198189 49663 net.cpp:165] Memory required for data: 10664
I0612 09:43:33.198192 49663 layer_factory.hpp:77] Creating layer conv4-1
I0612 09:43:33.198205 49663 net.cpp:106] Creating Layer conv4-1
I0612 09:43:33.198210 49663 net.cpp:454] conv4-1 <- conv3_PReLU3_0_split_0
I0612 09:43:33.198218 49663 net.cpp:411] conv4-1 -> conv4-1
I0612 09:43:33.198418 49663 net.cpp:150] Setting up conv4-1
I0612 09:43:33.198426 49663 net.cpp:157] Top shape: 1 2 1 1 (2)
I0612 09:43:33.198429 49663 net.cpp:165] Memory required for data: 10672
I0612 09:43:33.198436 49663 layer_factory.hpp:77] Creating layer conv4-2
I0612 09:43:33.198446 49663 net.cpp:106] Creating Layer conv4-2
I0612 09:43:33.198478 49663 net.cpp:454] conv4-2 <- conv3_PReLU3_0_split_1
I0612 09:43:33.198491 49663 net.cpp:411] conv4-2 -> conv4-2
I0612 09:43:33.198693 49663 net.cpp:150] Setting up conv4-2
I0612 09:43:33.198701 49663 net.cpp:157] Top shape: 1 4 1 1 (4)
I0612 09:43:33.198705 49663 net.cpp:165] Memory required for data: 10688
I0612 09:43:33.198712 49663 layer_factory.hpp:77] Creating layer prob1
I0612 09:43:33.198719 49663 net.cpp:106] Creating Layer prob1
I0612 09:43:33.198722 49663 net.cpp:454] prob1 <- conv4-1
I0612 09:43:33.198729 49663 net.cpp:411] prob1 -> prob1
I0612 09:43:33.198783 49663 net.cpp:150] Setting up prob1
I0612 09:43:33.198789 49663 net.cpp:157] Top shape: 1 2 1 1 (2)
I0612 09:43:33.198801 49663 net.cpp:165] Memory required for data: 10696
I0612 09:43:33.198806 49663 net.cpp:228] prob1 does not need backward computation.
I0612 09:43:33.198809 49663 net.cpp:228] conv4-2 does not need backward computation.
I0612 09:43:33.198830 49663 net.cpp:228] conv4-1 does not need backward computation.
I0612 09:43:33.198834 49663 net.cpp:228] conv3_PReLU3_0_split does not need backward computation.
…
I0612 09:43:33.200875 49663 net.cpp:816] Ignoring source layer label1_slicer_label_0_split
I0612 09:43:33.200878 49663 net.cpp:816] Ignoring source layer silence
I0612 09:43:33.200893 49663 net.cpp:816] Ignoring source layer conv4-1_conv4-1_0_split
I0612 09:43:33.200898 49663 net.cpp:816] Ignoring source layer loss1
I0612 09:43:33.200902 49663 net.cpp:816] Ignoring source layer loss2
I0612 09:43:33.200906 49663 net.cpp:816] Ignoring source layer accuracy1
I0612 09:43:33.202119 49663 net.cpp:49] Initializing net from parameters: 
name: "RNet"
input: "data"
input_dim: 1
input_dim: 3
input_dim: 24
input_dim: 24
state {
  phase: TEST
}
layer {
  name: "conv1"
  type: "Convolution"
  bottom: "data"
  top: "conv1"
  param {
    lr_mult: 0
    decay_mult: 0
  }
  param {
    lr_mult: 0
    decay_mult: 0
  }
  convolution_param {
    num_output: 28
    kernel_size: 3
    stride: 1
    weight_filler {
      type: "xavier"
    }
    bias_filler {
      type: "constant"
      value: 0
    }
  }
}
layer {
  name: "prelu1"
  type: "PReLU"
  bottom: "conv1"
  top: "conv1"
  propagate_down: true
}
layer {
  name: "pool1"
  type: "Pooling"
  bottom: "conv1"
  top: "pool1"
  pooling_param {
    pool: MAX
    kernel_size: 3
    stride: 2
  }
}
layer {
  name: "conv2"
  type: "Convolution"
  bottom: "pool1"
  top: "conv2"
  param {
    lr_mult: 0
    decay_mult: 0
  }
  param {
    lr_mult: 0
    decay_mult: 0
  }
  convolution_param {
    num_output: 48
    kernel_size: 3
    stride: 1
    weight_filler {
      type: "xavier"
    }
    bias_filler {
      type: "constant"
      value: 0
    }
  }
}
layer {
  name: "prelu2"
  type: "PReLU"
  bottom: "conv2"
  top: "conv2"
  propagate_down: true
}
layer {
  name: "pool2"
  type: "Pooling"
  bottom: "conv2"
  top: "pool2"
  pooling_param {
    pool: MAX
    kernel_size: 3
    stride: 2
  }
}
layer {
  name: "conv3"
  type: "Convolution"
  bottom: "pool2"
  top: "conv3"
  param {
    lr_mult: 0
    decay_mult: 0
  }
  param {
    lr_mult: 0
    decay_mult: 0
  }
  convolution_param {
    num_output: 64
    kernel_size: 2
    stride: 1
    weight_filler {
      type: "xavier"
    }
    bias_filler {
      type: "constant"
      value: 0
    }
  }
}
layer {
  name: "prelu3"
  type: "PReLU"
  bottom: "conv3"
  top: "conv3"
  propagate_down: true
}
layer {
  name: "conv4"
  type: "InnerProduct"
  bottom: "conv3"
  top: "conv4"
  param {
    lr_mult: 0
    decay_mult: 0
  }
  param {
    lr_mult: 0
    decay_mult: 0
  }
  inner_product_param {
    num_output: 128
    weight_filler {
      type: "xavier"
    }
    bias_filler {
      type: "constant"
      value: 0
    }
  }
}
layer {
  name: "prelu4"
  type: "PReLU"
  bottom: "conv4"
  top: "conv4"
}
layer {
  name: "conv5-1"
  type: "InnerProduct"
  bottom: "conv4"
  top: "conv5-1"
  param {
    lr_mult: 0
    decay_mult: 0
  }
  param {
    lr_mult: 0
    decay_mult: 0
  }
  inner_product_param {
    num_output: 2
    weight_filler {
      type: "xavier"
    }
    bias_filler {
      type: "constant"
      value: 0
    }
  }
}
layer {
  name: "conv5-2"
  type: "InnerProduct"
  bottom: "conv4"
  top: "conv5-2"
  param {
    lr_mult: 1
    decay_mult: 1
  }
  param {
    lr_mult: 2
    decay_mult: 1
  }
  inner_product_param {
    num_output: 4
    weight_filler {
      type: "xavier"
    }
    bias_filler {
      type: "constant"
      value: 0
    }
  }
}
layer {
  name: "prob1"
  type: "Softmax"
  bottom: "conv5-1"
  top: "prob1"
}
I0612 09:43:33.202188 49663 net.cpp:413] Input 0 -> data
I0612 09:43:33.202239 49663 layer_factory.hpp:77] Creating layer conv1
I0612 09:43:33.202251 49663 net.cpp:106] Creating Layer conv1
I0612 09:43:33.202255 49663 net.cpp:454] conv1 <- data
I0612 09:43:33.202262 49663 net.cpp:411] conv1 -> conv1
I0612 09:43:33.202560 49663 net.cpp:150] Setting up conv1
I0612 09:43:33.202572 49663 net.cpp:157] Top shape: 1 28 22 22 (13552)
I0612 09:43:33.202576 49663 net.cpp:165] Memory required for data: 54208
I0612 09:43:33.202587 49663 layer_factory.hpp:77] Creating layer prelu1
I0612 09:43:33.202596 49663 net.cpp:106] Creating Layer prelu1
I0612 09:43:33.202600 49663 net.cpp:454] prelu1 <- conv1
I0612 09:43:33.202605 49663 net.cpp:397] prelu1 -> conv1 (in-place)
I0612 09:43:33.202703 49663 net.cpp:150] Setting up prelu1
I0612 09:43:33.202711 49663 net.cpp:157] Top shape: 1 28 22 22 (13552)
I0612 09:43:33.202715 49663 net.cpp:165] Memory required for data: 108416
I0612 09:43:33.202723 49663 layer_factory.hpp:77] Creating layer pool1
I0612 09:43:33.202730 49663 net.cpp:106] Creating Layer pool1
I0612 09:43:33.202734 49663 net.cpp:454] pool1 <- conv1
I0612 09:43:33.202740 49663 net.cpp:411] pool1 -> pool1
I0612 09:43:33.202782 49663 net.cpp:150] Setting up pool1
I0612 09:43:33.202800 49663 net.cpp:157] Top shape: 1 28 11 11 (3388)
I0612 09:43:33.202802 49663 net.cpp:165] Memory required for data: 121968
I0612 09:43:33.202806 49663 layer_factory.hpp:77] Creating layer conv2
I0612 09:43:33.202816 49663 net.cpp:106] Creating Layer conv2
I0612 09:43:33.202819 49663 net.cpp:454] conv2 <- pool1
I0612 09:43:33.202826 49663 net.cpp:411] conv2 -> conv2
I0612 09:43:33.203130 49663 net.cpp:150] Setting up conv2
I0612 09:43:33.203137 49663 net.cpp:157] Top shape: 1 48 9 9 (3888)
I0612 09:43:33.203141 49663 net.cpp:165] Memory required for data: 137520
I0612 09:43:33.203150 49663 layer_factory.hpp:77] Creating layer prelu2
I0612 09:43:33.203157 49663 net.cpp:106] Creating Layer prelu2
I0612 09:43:33.203161 49663 net.cpp:454] prelu2 <- conv2
I0612 09:43:33.203166 49663 net.cpp:397] prelu2 -> conv2 (in-place)
I0612 09:43:33.203251 49663 net.cpp:150] Setting up prelu2
I0612 09:43:33.203258 49663 net.cpp:157] Top shape: 1 48 9 9 (3888)
I0612 09:43:33.203260 49663 net.cpp:165] Memory required for data: 153072
I0612 09:43:33.203265 49663 layer_factory.hpp:77] Creating layer pool2
I0612 09:43:33.203272 49663 net.cpp:106] Creating Layer pool2
I0612 09:43:33.203275 49663 net.cpp:454] pool2 <- conv2
I0612 09:43:33.203281 49663 net.cpp:411] pool2 -> pool2
I0612 09:43:33.203313 49663 net.cpp:150] Setting up pool2
I0612 09:43:33.203320 49663 net.cpp:157] Top shape: 1 48 4 4 (768)
I0612 09:43:33.203323 49663 net.cpp:165] Memory required for data: 156144
I0612 09:43:33.203326 49663 layer_factory.hpp:77] Creating layer conv3
I0612 09:43:33.203335 49663 net.cpp:106] Creating Layer conv3
I0612 09:43:33.203338 49663 net.cpp:454] conv3 <- pool2
I0612 09:43:33.203346 49663 net.cpp:411] conv3 -> conv3
I0612 09:43:33.203635 49663 net.cpp:150] Setting up conv3
I0612 09:43:33.203642 49663 net.cpp:157] Top shape: 1 64 3 3 (576)
I0612 09:43:33.203646 49663 net.cpp:165] Memory required for data: 158448
I0612 09:43:33.203652 49663 layer_factory.hpp:77] Creating layer prelu3
I0612 09:43:33.203658 49663 net.cpp:106] Creating Layer prelu3
I0612 09:43:33.203662 49663 net.cpp:454] prelu3 <- conv3
I0612 09:43:33.203668 49663 net.cpp:397] prelu3 -> conv3 (in-place)
I0612 09:43:33.203747 49663 net.cpp:150] Setting up prelu3
I0612 09:43:33.203752 49663 net.cpp:157] Top shape: 1 64 3 3 (576)
I0612 09:43:33.203763 49663 net.cpp:165] Memory required for data: 160752
I0612 09:43:33.203773 49663 layer_factory.hpp:77] Creating layer conv4
I0612 09:43:33.203781 49663 net.cpp:106] Creating Layer conv4
I0612 09:43:33.203785 49663 net.cpp:454] conv4 <- conv3
I0612 09:43:33.203791 49663 net.cpp:411] conv4 -> conv4
I0612 09:43:33.206583 49663 net.cpp:150] Setting up conv4
I0612 09:43:33.206606 49663 net.cpp:157] Top shape: 1 128 (128)
I0612 09:43:33.206610 49663 net.cpp:165] Memory required for data: 161264
I0612 09:43:33.206619 49663 layer_factory.hpp:77] Creating layer prelu4
I0612 09:43:33.206626 49663 net.cpp:106] Creating Layer prelu4
I0612 09:43:33.206630 49663 net.cpp:454] prelu4 <- conv4
I0612 09:43:33.206636 49663 net.cpp:397] prelu4 -> conv4 (in-place)
I0612 09:43:33.206712 49663 net.cpp:150] Setting up prelu4
I0612 09:43:33.206719 49663 net.cpp:157] Top shape: 1 128 (128)
I0612 09:43:33.206722 49663 net.cpp:165] Memory required for data: 161776
I0612 09:43:33.206728 49663 layer_factory.hpp:77] Creating layer conv4_prelu4_0_split
I0612 09:43:33.206735 49663 net.cpp:106] Creating Layer conv4_prelu4_0_split
I0612 09:43:33.206739 49663 net.cpp:454] conv4_prelu4_0_split <- conv4
I0612 09:43:33.206745 49663 net.cpp:411] conv4_prelu4_0_split -> conv4_prelu4_0_split_0
I0612 09:43:33.206753 49663 net.cpp:411] conv4_prelu4_0_split -> conv4_prelu4_0_split_1
I0612 09:43:33.206807 49663 net.cpp:150] Setting up conv4_prelu4_0_split
I0612 09:43:33.206813 49663 net.cpp:157] Top shape: 1 128 (128)
I0612 09:43:33.206817 49663 net.cpp:157] Top shape: 1 128 (128)
I0612 09:43:33.206821 49663 net.cpp:165] Memory required for data: 162800
I0612 09:43:33.206825 49663 layer_factory.hpp:77] Creating layer conv5-1
I0612 09:43:33.206832 49663 net.cpp:106] Creating Layer conv5-1
I0612 09:43:33.206836 49663 net.cpp:454] conv5-1 <- conv4_prelu4_0_split_0
I0612 09:43:33.206843 49663 net.cpp:411] conv5-1 -> conv5-1
I0612 09:43:33.206935 49663 net.cpp:150] Setting up conv5-1
I0612 09:43:33.206943 49663 net.cpp:157] Top shape: 1 2 (2)
I0612 09:43:33.206945 49663 net.cpp:165] Memory required for data: 162808
I0612 09:43:33.206951 49663 layer_factory.hpp:77] Creating layer conv5-2
I0612 09:43:33.206959 49663 net.cpp:106] Creating Layer conv5-2
I0612 09:43:33.206962 49663 net.cpp:454] conv5-2 <- conv4_prelu4_0_split_1
I0612 09:43:33.206969 49663 net.cpp:411] conv5-2 -> conv5-2
I0612 09:43:33.207069 49663 net.cpp:150] Setting up conv5-2
I0612 09:43:33.207075 49663 net.cpp:157] Top shape: 1 4 (4)
I0612 09:43:33.207079 49663 net.cpp:165] Memory required for data: 162824
I0612 09:43:33.207085 49663 layer_factory.hpp:77] Creating layer prob1
I0612 09:43:33.207093 49663 net.cpp:106] Creating Layer prob1
I0612 09:43:33.207096 49663 net.cpp:454] prob1 <- conv5-1
I0612 09:43:33.207103 49663 net.cpp:411] prob1 -> prob1
I0612 09:43:33.207156 49663 net.cpp:150] Setting up prob1
I0612 09:43:33.207161 49663 net.cpp:157] Top shape: 1 2 (2)
I0612 09:43:33.207165 49663 net.cpp:165] Memory required for data: 162832
I0612 09:43:33.207170 49663 net.cpp:228] prob1 does not need backward computation.
I0612 09:43:33.207173 49663 net.cpp:228] conv5-2 does not need backward computation.
I0612 09:43:33.207176 49663 net.cpp:228] conv5-1 does not need backward computation.
I0612 09:43:33.207180 49663 net.cpp:228] conv4_prelu4_0_split does not need backward computation.
…
I0612 09:43:33.211444 49663 net.cpp:816] Ignoring source layer conv5-1_conv5-1_0_split
I0612 09:43:33.211452 49663 net.cpp:816] Ignoring source layer conv5-3
I0612 09:43:33.211454 49663 net.cpp:816] Ignoring source layer loss3
I0612 09:43:33.211457 49663 net.cpp:816] Ignoring source layer loss2
I0612 09:43:33.211462 49663 net.cpp:816] Ignoring source layer loss1
I0612 09:43:33.211464 49663 net.cpp:816] Ignoring source layer accuracy1
I0612 09:43:33.212168 49663 net.cpp:49] Initializing net from parameters: 
name: "ONet"
input: "data"
input_dim: 1
input_dim: 3
input_dim: 48
input_dim: 48
state {
  phase: TEST
}
layer {
  name: "conv1"
  type: "Convolution"
  bottom: "data"
  top: "conv1"
  param {
    lr_mult: 1
    decay_mult: 1
  }
  param {
    lr_mult: 2
    decay_mult: 1
  }
  convolution_param {
    num_output: 32
    kernel_size: 3
    stride: 1
    weight_filler {
      type: "xavier"
    }
    bias_filler {
      type: "constant"
      value: 0
    }
  }
}
layer {
  name: "prelu1"
  type: "PReLU"
  bottom: "conv1"
  top: "conv1"
}
layer {
  name: "pool1"
  type: "Pooling"
  bottom: "conv1"
  top: "pool1"
  pooling_param {
    pool: MAX
    kernel_size: 3
    stride: 2
  }
}
layer {
  name: "conv2"
  type: "Convolution"
  bottom: "pool1"
  top: "conv2"
  param {
    lr_mult: 1
    decay_mult: 1
  }
  param {
    lr_mult: 2
    decay_mult: 1
  }
  convolution_param {
    num_output: 64
    kernel_size: 3
    stride: 1
    weight_filler {
      type: "xavier"
    }
    bias_filler {
      type: "constant"
      value: 0
    }
  }
}
layer {
  name: "prelu2"
  type: "PReLU"
  bottom: "conv2"
  top: "conv2"
}
layer {
  name: "pool2"
  type: "Pooling"
  bottom: "conv2"
  top: "pool2"
  pooling_param {
    pool: MAX
    kernel_size: 3
    stride: 2
  }
}
layer {
  name: "conv3"
  type: "Convolution"
  bottom: "pool2"
  top: "conv3"
  param {
    lr_mult: 1
    decay_mult: 1
  }
  param {
    lr_mult: 2
    decay_mult: 1
  }
  convolution_param {
    num_output: 64
    kernel_size: 3
    weight_filler {
      type: "xavier"
    }
    bias_filler {
      type: "constant"
      value: 0
    }
  }
}
layer {
  name: "prelu3"
  type: "PReLU"
  bottom: "conv3"
  top: "conv3"
}
layer {
  name: "pool3"
  type: "Pooling"
  bottom: "conv3"
  top: "pool3"
  pooling_param {
    pool: MAX
    kernel_size: 2
    stride: 2
  }
}
layer {
  name: "conv4"
  type: "Convolution"
  bottom: "pool3"
  top: "conv4"
  param {
    lr_mult: 1
    decay_mult: 1
  }
  param {
    lr_mult: 2
    decay_mult: 1
  }
  convolution_param {
    num_output: 128
    kernel_size: 2
    weight_filler {
      type: "xavier"
    }
    bias_filler {
      type: "constant"
      value: 0
    }
  }
}
layer {
  name: "prelu4"
  type: "PReLU"
  bottom: "conv4"
  top: "conv4"
}
layer {
  name: "conv5"
  type: "InnerProduct"
  bottom: "conv4"
  top: "conv5"
  param {
    lr_mult: 1
    decay_mult: 1
  }
  param {
    lr_mult: 2
    decay_mult: 1
  }
  inner_product_param {
    num_output: 256
    weight_filler {
      type: "xavier"
    }
    bias_filler {
      type: "constant"
      value: 0
    }
  }
}
layer {
  name: "drop5"
  type: "Dropout"
  bottom: "conv5"
  top: "conv5"
  dropout_param {
    dropout_ratio: 0.25
  }
}
layer {
  name: "prelu5"
  type: "PReLU"
  bottom: "conv5"
  top: "conv5"
}
layer {
  name: "conv6-1"
  type: "InnerProduct"
  bottom: "conv5"
  top: "conv6-1"
  param {
    lr_mult: 1
    decay_mult: 1
  }
  param {
    lr_mult: 2
    decay_mult: 1
  }
  inner_product_param {
    num_output: 2
    weight_filler {
      type: "xavier"
    }
    bias_filler {
      type: "constant"
      value: 0
    }
  }
}
layer {
  name: "conv6-2"
  type: "InnerProduct"
  bottom: "conv5"
  top: "conv6-2"
  param {
    lr_mult: 1
    decay_mult: 1
  }
  param {
    lr_mult: 2
    decay_mult: 1
  }
  inner_product_param {
    num_output: 4
    weight_filler {
      type: "xavier"
    }
    bias_filler {
      type: "constant"
      value: 0
    }
  }
}
layer {
  name: "conv6-3"
  type: "InnerProduct"
  bottom: "conv5"
  top: "conv6-3"
  param {
    lr_mult: 1
    decay_mult: 1
  }
  param {
    lr_mult: 2
    decay_mult: 1
  }
  inner_product_param {
    num_output: 10
    weight_filler {
      type: "xavier"
    }
    bias_filler {
      type: "constant"
      value: 0
    }
  }
}
layer {
  name: "prob1"
  type: "Softmax"
  bottom: "conv6-1"
  top: "prob1"
}
I0612 09:43:33.212246 49663 net.cpp:413] Input 0 -> data
I0612 09:43:33.212298 49663 layer_factory.hpp:77] Creating layer conv1
I0612 09:43:33.212311 49663 net.cpp:106] Creating Layer conv1
I0612 09:43:33.212314 49663 net.cpp:454] conv1 <- data
I0612 09:43:33.212321 49663 net.cpp:411] conv1 -> conv1
I0612 09:43:33.212563 49663 net.cpp:150] Setting up conv1
I0612 09:43:33.212572 49663 net.cpp:157] Top shape: 1 32 46 46 (67712)
I0612 09:43:33.212576 49663 net.cpp:165] Memory required for data: 270848
I0612 09:43:33.212586 49663 layer_factory.hpp:77] Creating layer prelu1
I0612 09:43:33.212594 49663 net.cpp:106] Creating Layer prelu1
I0612 09:43:33.212597 49663 net.cpp:454] prelu1 <- conv1
I0612 09:43:33.212601 49663 net.cpp:397] prelu1 -> conv1 (in-place)
I0612 09:43:33.212759 49663 net.cpp:150] Setting up prelu1
I0612 09:43:33.212766 49663 net.cpp:157] Top shape: 1 32 46 46 (67712)
I0612 09:43:33.212769 49663 net.cpp:165] Memory required for data: 541696
I0612 09:43:33.212776 49663 layer_factory.hpp:77] Creating layer pool1
I0612 09:43:33.212783 49663 net.cpp:106] Creating Layer pool1
I0612 09:43:33.212787 49663 net.cpp:454] pool1 <- conv1
I0612 09:43:33.212792 49663 net.cpp:411] pool1 -> pool1
I0612 09:43:33.212826 49663 net.cpp:150] Setting up pool1
I0612 09:43:33.212832 49663 net.cpp:157] Top shape: 1 32 23 23 (16928)
I0612 09:43:33.212836 49663 net.cpp:165] Memory required for data: 609408
I0612 09:43:33.212839 49663 layer_factory.hpp:77] Creating layer conv2
I0612 09:43:33.212847 49663 net.cpp:106] Creating Layer conv2
I0612 09:43:33.212852 49663 net.cpp:454] conv2 <- pool1
I0612 09:43:33.212857 49663 net.cpp:411] conv2 -> conv2
I0612 09:43:33.215351 49663 net.cpp:150] Setting up conv2
I0612 09:43:33.215370 49663 net.cpp:157] Top shape: 1 64 21 21 (28224)
I0612 09:43:33.215374 49663 net.cpp:165] Memory required for data: 722304
I0612 09:43:33.215384 49663 layer_factory.hpp:77] Creating layer prelu2
I0612 09:43:33.215394 49663 net.cpp:106] Creating Layer prelu2
I0612 09:43:33.215399 49663 net.cpp:454] prelu2 <- conv2
I0612 09:43:33.215404 49663 net.cpp:397] prelu2 -> conv2 (in-place)
I0612 09:43:33.215507 49663 net.cpp:150] Setting up prelu2
I0612 09:43:33.215515 49663 net.cpp:157] Top shape: 1 64 21 21 (28224)
I0612 09:43:33.215519 49663 net.cpp:165] Memory required for data: 835200
I0612 09:43:33.215524 49663 layer_factory.hpp:77] Creating layer pool2
I0612 09:43:33.215531 49663 net.cpp:106] Creating Layer pool2
I0612 09:43:33.215535 49663 net.cpp:454] pool2 <- conv2
I0612 09:43:33.215540 49663 net.cpp:411] pool2 -> pool2
I0612 09:43:33.215575 49663 net.cpp:150] Setting up pool2
I0612 09:43:33.215582 49663 net.cpp:157] Top shape: 1 64 10 10 (6400)
I0612 09:43:33.215586 49663 net.cpp:165] Memory required for data: 860800
I0612 09:43:33.215590 49663 layer_factory.hpp:77] Creating layer conv3
I0612 09:43:33.215598 49663 net.cpp:106] Creating Layer conv3
I0612 09:43:33.215602 49663 net.cpp:454] conv3 <- pool2
I0612 09:43:33.215610 49663 net.cpp:411] conv3 -> conv3
I0612 09:43:33.216045 49663 net.cpp:150] Setting up conv3
I0612 09:43:33.216053 49663 net.cpp:157] Top shape: 1 64 8 8 (4096)
I0612 09:43:33.216058 49663 net.cpp:165] Memory required for data: 877184
I0612 09:43:33.216070 49663 layer_factory.hpp:77] Creating layer prelu3
I0612 09:43:33.216078 49663 net.cpp:106] Creating Layer prelu3
I0612 09:43:33.216080 49663 net.cpp:454] prelu3 <- conv3
I0612 09:43:33.216087 49663 net.cpp:397] prelu3 -> conv3 (in-place)
I0612 09:43:33.216183 49663 net.cpp:150] Setting up prelu3
I0612 09:43:33.216189 49663 net.cpp:157] Top shape: 1 64 8 8 (4096)
I0612 09:43:33.216192 49663 net.cpp:165] Memory required for data: 893568
I0612 09:43:33.216200 49663 layer_factory.hpp:77] Creating layer pool3
I0612 09:43:33.216208 49663 net.cpp:106] Creating Layer pool3
I0612 09:43:33.216212 49663 net.cpp:454] pool3 <- conv3
I0612 09:43:33.216217 49663 net.cpp:411] pool3 -> pool3
I0612 09:43:33.216251 49663 net.cpp:150] Setting up pool3
I0612 09:43:33.216256 49663 net.cpp:157] Top shape: 1 64 4 4 (1024)
I0612 09:43:33.216260 49663 net.cpp:165] Memory required for data: 897664
I0612 09:43:33.216264 49663 layer_factory.hpp:77] Creating layer conv4
I0612 09:43:33.216272 49663 net.cpp:106] Creating Layer conv4
I0612 09:43:33.216276 49663 net.cpp:454] conv4 <- pool3
I0612 09:43:33.216281 49663 net.cpp:411] conv4 -> conv4
I0612 09:43:33.216689 49663 net.cpp:150] Setting up conv4
I0612 09:43:33.216697 49663 net.cpp:157] Top shape: 1 128 3 3 (1152)
I0612 09:43:33.216701 49663 net.cpp:165] Memory required for data: 902272
I0612 09:43:33.216707 49663 layer_factory.hpp:77] Creating layer prelu4
I0612 09:43:33.216713 49663 net.cpp:106] Creating Layer prelu4
I0612 09:43:33.216717 49663 net.cpp:454] prelu4 <- conv4
I0612 09:43:33.216723 49663 net.cpp:397] prelu4 -> conv4 (in-place)
I0612 09:43:33.216797 49663 net.cpp:150] Setting up prelu4
I0612 09:43:33.216804 49663 net.cpp:157] Top shape: 1 128 3 3 (1152)
I0612 09:43:33.216809 49663 net.cpp:165] Memory required for data: 906880
I0612 09:43:33.216814 49663 layer_factory.hpp:77] Creating layer conv5
I0612 09:43:33.216820 49663 net.cpp:106] Creating Layer conv5
I0612 09:43:33.216825 49663 net.cpp:454] conv5 <- conv4
I0612 09:43:33.216831 49663 net.cpp:411] conv5 -> conv5
I0612 09:43:33.218885 49663 net.cpp:150] Setting up conv5
I0612 09:43:33.218895 49663 net.cpp:157] Top shape: 1 256 (256)
I0612 09:43:33.218899 49663 net.cpp:165] Memory required for data: 907904
I0612 09:43:33.218905 49663 layer_factory.hpp:77] Creating layer drop5
I0612 09:43:33.218912 49663 net.cpp:106] Creating Layer drop5
I0612 09:43:33.218916 49663 net.cpp:454] drop5 <- conv5
I0612 09:43:33.218922 49663 net.cpp:397] drop5 -> conv5 (in-place)
I0612 09:43:33.218945 49663 net.cpp:150] Setting up drop5
I0612 09:43:33.218951 49663 net.cpp:157] Top shape: 1 256 (256)
I0612 09:43:33.218955 49663 net.cpp:165] Memory required for data: 908928
I0612 09:43:33.218957 49663 layer_factory.hpp:77] Creating layer prelu5
I0612 09:43:33.218971 49663 net.cpp:106] Creating Layer prelu5
I0612 09:43:33.218974 49663 net.cpp:454] prelu5 <- conv5
I0612 09:43:33.218979 49663 net.cpp:397] prelu5 -> conv5 (in-place)
I0612 09:43:33.219060 49663 net.cpp:150] Setting up prelu5
I0612 09:43:33.219066 49663 net.cpp:157] Top shape: 1 256 (256)
I0612 09:43:33.219069 49663 net.cpp:165] Memory required for data: 909952
I0612 09:43:33.219074 49663 layer_factory.hpp:77] Creating layer conv5_prelu5_0_split
I0612 09:43:33.219081 49663 net.cpp:106] Creating Layer conv5_prelu5_0_split
I0612 09:43:33.219085 49663 net.cpp:454] conv5_prelu5_0_split <- conv5
I0612 09:43:33.219090 49663 net.cpp:411] conv5_prelu5_0_split -> conv5_prelu5_0_split_0
I0612 09:43:33.219097 49663 net.cpp:411] conv5_prelu5_0_split -> conv5_prelu5_0_split_1
I0612 09:43:33.219105 49663 net.cpp:411] conv5_prelu5_0_split -> conv5_prelu5_0_split_2
I0612 09:43:33.219147 49663 net.cpp:150] Setting up conv5_prelu5_0_split
I0612 09:43:33.219152 49663 net.cpp:157] Top shape: 1 256 (256)
I0612 09:43:33.219156 49663 net.cpp:157] Top shape: 1 256 (256)
I0612 09:43:33.219161 49663 net.cpp:157] Top shape: 1 256 (256)
I0612 09:43:33.219164 49663 net.cpp:165] Memory required for data: 913024
I0612 09:43:33.219167 49663 layer_factory.hpp:77] Creating layer conv6-1
I0612 09:43:33.219179 49663 net.cpp:106] Creating Layer conv6-1
I0612 09:43:33.219184 49663 net.cpp:454] conv6-1 <- conv5_prelu5_0_split_0
I0612 09:43:33.219197 49663 net.cpp:411] conv6-1 -> conv6-1
I0612 09:43:33.219301 49663 net.cpp:150] Setting up conv6-1
I0612 09:43:33.219308 49663 net.cpp:157] Top shape: 1 2 (2)
I0612 09:43:33.219311 49663 net.cpp:165] Memory required for data: 913032
I0612 09:43:33.219321 49663 layer_factory.hpp:77] Creating layer conv6-2
I0612 09:43:33.219331 49663 net.cpp:106] Creating Layer conv6-2
I0612 09:43:33.219334 49663 net.cpp:454] conv6-2 <- conv5_prelu5_0_split_1
I0612 09:43:33.219341 49663 net.cpp:411] conv6-2 -> conv6-2
I0612 09:43:33.219444 49663 net.cpp:150] Setting up conv6-2
I0612 09:43:33.219449 49663 net.cpp:157] Top shape: 1 4 (4)
I0612 09:43:33.219453 49663 net.cpp:165] Memory required for data: 913048
I0612 09:43:33.219460 49663 layer_factory.hpp:77] Creating layer conv6-3
I0612 09:43:33.219465 49663 net.cpp:106] Creating Layer conv6-3
I0612 09:43:33.219470 49663 net.cpp:454] conv6-3 <- conv5_prelu5_0_split_2
I0612 09:43:33.219476 49663 net.cpp:411] conv6-3 -> conv6-3
I0612 09:43:33.219586 49663 net.cpp:150] Setting up conv6-3
I0612 09:43:33.219593 49663 net.cpp:157] Top shape: 1 10 (10)
I0612 09:43:33.219596 49663 net.cpp:165] Memory required for data: 913088
I0612 09:43:33.219601 49663 layer_factory.hpp:77] Creating layer prob1
I0612 09:43:33.219609 49663 net.cpp:106] Creating Layer prob1
I0612 09:43:33.219612 49663 net.cpp:454] prob1 <- conv6-1
I0612 09:43:33.219617 49663 net.cpp:411] prob1 -> prob1
I0612 09:43:33.219671 49663 net.cpp:150] Setting up prob1
I0612 09:43:33.219676 49663 net.cpp:157] Top shape: 1 2 (2)
I0612 09:43:33.219679 49663 net.cpp:165] Memory required for data: 913096
I0612 09:43:33.219682 49663 net.cpp:228] prob1 does not need backward computation.
I0612 09:43:33.219686 49663 net.cpp:228] conv6-3 does not need backward computation.
I0612 09:43:33.219691 49663 net.cpp:228] conv6-2 does not need backward computation.
I0612 09:43:33.219694 49663 net.cpp:228] conv6-1 does not need backward computation.
…
I0612 09:43:33.232729 49663 net.cpp:816] Ignoring source layer label1_slicer_label_0_split
I0612 09:43:33.233239 49663 net.cpp:816] Ignoring source layer conv6-1_conv6-1_0_split
I0612 09:43:33.233259 49663 net.cpp:816] Ignoring source layer loss1
I0612 09:43:33.233265 49663 net.cpp:816] Ignoring source layer accuracy1
I0612 09:43:33.233284 49663 net.cpp:816] Ignoring source layer loss2
I0612 09:43:33.233291 49663 net.cpp:816] Ignoring source layer loss3
I0612 09:43:33.235415 49663 net.cpp:49] Initializing net from parameters: 
name: "LNet"
input: "data"
input_dim: 1
input_dim: 15
input_dim: 24
input_dim: 24
state {
  phase: TEST
}
layer {
  name: "slicer_data"
  type: "Slice"
  bottom: "data"
  top: "data241"
  top: "data242"
  top: "data243"
  top: "data244"
  top: "data245"
  slice_param {
    slice_point: 3
    slice_point: 6
    slice_point: 9
    slice_point: 12
    axis: 1
  }
}
layer {
  name: "conv1_1"
  type: "Convolution"
  bottom: "data241"
  top: "conv1_1"
  param {
    lr_mult: 1
    decay_mult: 1
  }
  param {
    lr_mult: 2
    decay_mult: 1
  }
  convolution_param {
    num_output: 28
    kernel_size: 3
    stride: 1
    weight_filler {
      type: "xavier"
    }
    bias_filler {
      type: "constant"
      value: 0
    }
  }
}
layer {
  name: "prelu1_1"
  type: "PReLU"
  bottom: "conv1_1"
  top: "conv1_1"
}
layer {
  name: "pool1_1"
  type: "Pooling"
  bottom: "conv1_1"
  top: "pool1_1"
  pooling_param {
    pool: MAX
    kernel_size: 3
    stride: 2
  }
}
layer {
  name: "conv2_1"
  type: "Convolution"
  bottom: "pool1_1"
  top: "conv2_1"
  param {
    lr_mult: 1
    decay_mult: 1
  }
  param {
    lr_mult: 2
    decay_mult: 1
  }
  convolution_param {
    num_output: 48
    kernel_size: 3
    stride: 1
    weight_filler {
      type: "xavier"
    }
    bias_filler {
      type: "constant"
      value: 0
    }
  }
}
layer {
  name: "prelu2_1"
  type: "PReLU"
  bottom: "conv2_1"
  top: "conv2_1"
}
layer {
  name: "pool2_1"
  type: "Pooling"
  bottom: "conv2_1"
  top: "pool2_1"
  pooling_param {
    pool: MAX
    kernel_size: 3
    stride: 2
  }
}
layer {
  name: "conv3_1"
  type: "Convolution"
  bottom: "pool2_1"
  top: "conv3_1"
  param {
    lr_mult: 1
    decay_mult: 1
  }
  param {
    lr_mult: 2
    decay_mult: 1
  }
  convolution_param {
    num_output: 64
    kernel_size: 2
    stride: 1
    weight_filler {
      type: "xavier"
    }
    bias_filler {
      type: "constant"
      value: 0
    }
  }
}
layer {
  name: "prelu3_1"
  type: "PReLU"
  bottom: "conv3_1"
  top: "conv3_1"
}
layer {
  name: "conv1_2"
  type: "Convolution"
  bottom: "data242"
  top: "conv1_2"
  param {
    lr_mult: 1
    decay_mult: 1
  }
  param {
    lr_mult: 2
    decay_mult: 1
  }
  convolution_param {
    num_output: 28
    kernel_size: 3
    stride: 1
    weight_filler {
      type: "xavier"
    }
    bias_filler {
      type: "constant"
      value: 0
    }
  }
}
layer {
  name: "prelu1_2"
  type: "PReLU"
  bottom: "conv1_2"
  top: "conv1_2"
}
layer {
  name: "pool1_2"
  type: "Pooling"
  bottom: "conv1_2"
  top: "pool1_2"
  pooling_param {
    pool: MAX
    kernel_size: 3
    stride: 2
  }
}
layer {
  name: "conv2_2"
  type: "Convolution"
  bottom: "pool1_2"
  top: "conv2_2"
  param {
    lr_mult: 1
    decay_mult: 1
  }
  param {
    lr_mult: 2
    decay_mult: 1
  }
  convolution_param {
    num_output: 48
    kernel_size: 3
    stride: 1
    weight_filler {
      type: "xavier"
    }
    bias_filler {
      type: "constant"
      value: 0
    }
  }
}
layer {
  name: "prelu2_2"
  type: "PReLU"
  bottom: "conv2_2"
  top: "conv2_2"
}
layer {
  name: "pool2_2"
  type: "Pooling"
  bottom: "conv2_2"
  top: "pool2_2"
  pooling_param {
    pool: MAX
    kernel_size: 3
    stride: 2
  }
}
layer {
  name: "conv3_2"
  type: "Convolution"
  bottom: "pool2_2"
  top: "conv3_2"
  param {
    lr_mult: 1
    decay_mult: 1
  }
  param {
    lr_mult: 2
    decay_mult: 1
  }
  convolution_param {
    num_output: 64
    kernel_size: 2
    stride: 1
    weight_filler {
      type: "xavier"
    }
    bias_filler {
      type: "constant"
      value: 0
    }
  }
}
layer {
  name: "prelu3_2"
  type: "PReLU"
  bottom: "conv3_2"
  top: "conv3_2"
}
layer {
  name: "conv1_3"
  type: "Convolution"
  bottom: "data243"
  top: "conv1_3"
  param {
    lr_mult: 1
    decay_mult: 1
  }
  param {
    lr_mult: 2
    decay_mult: 1
  }
  convolution_param {
    num_output: 28
    kernel_size: 3
    stride: 1
    weight_filler {
      type: "xavier"
    }
    bias_filler {
      type: "constant"
      value: 0
    }
  }
}
layer {
  name: "prelu1_3"
  type: "PReLU"
  bottom: "conv1_3"
  top: "conv1_3"
}
layer {
  name: "pool1_3"
  type: "Pooling"
  bottom: "conv1_3"
  top: "pool1_3"
  pooling_param {
    pool: MAX
    kernel_size: 3
    stride: 2
  }
}
layer {
  name: "conv2_3"
  type: "Convolution"
  bottom: "pool1_3"
  top: "conv2_3"
  param {
    lr_mult: 1
    decay_mult: 1
  }
  param {
    lr_mult: 2
    decay_mult: 1
  }
  convolution_param {
    num_output: 48
    kernel_size: 3
    stride: 1
    weight_filler {
      type: "xavier"
    }
    bias_filler {
      type: "constant"
      value: 0
    }
  }
}
layer {
  name: "prelu2_3"
  type: "PReLU"
  bottom: "conv2_3"
  top: "conv2_3"
}
layer {
  name: "pool2_3"
  type: "Pooling"
  bottom: "conv2_3"
  top: "pool2_3"
  pooling_param {
    pool: MAX
    kernel_size: 3
    stride: 2
  }
}
layer {
  name: "conv3_3"
  type: "Convolution"
  bottom: "pool2_3"
  top: "conv3_3"
  param {
    lr_mult: 1
    decay_mult: 1
  }
  param {
    lr_mult: 2
    decay_mult: 1
  }
  convolution_param {
    num_output: 64
    kernel_size: 2
    stride: 1
    weight_filler {
      type: "xavier"
    }
    bias_filler {
      type: "constant"
      value: 0
    }
  }
}
layer {
  name: "prelu3_3"
  type: "PReLU"
  bottom: "conv3_3"
  top: "conv3_3"
}
layer {
  name: "conv1_4"
  type: "Convolution"
  bottom: "data244"
  top: "conv1_4"
  param {
    lr_mult: 1
    decay_mult: 1
  }
  param {
    lr_mult: 2
    decay_mult: 1
  }
  convolution_param {
    num_output: 28
    kernel_size: 3
    stride: 1
    weight_filler {
      type: "xavier"
    }
    bias_filler {
      type: "constant"
      value: 0
    }
  }
}
layer {
  name: "prelu1_4"
  type: "PReLU"
  bottom: "conv1_4"
  top: "conv1_4"
}
layer {
  name: "pool1_4"
  type: "Pooling"
  bottom: "conv1_4"
  top: "pool1_4"
  pooling_param {
    pool: MAX
    kernel_size: 3
    stride: 2
  }
}
layer {
  name: "conv2_4"
  type: "Convolution"
  bottom: "pool1_4"
  top: "conv2_4"
  param {
    lr_mult: 1
    decay_mult: 1
  }
  param {
    lr_mult: 2
    decay_mult: 1
  }
  convolution_param {
    num_output: 48
    kernel_size: 3
    stride: 1
    weight_filler {
      type: "xavier"
    }
    bias_filler {
      type: "constant"
      value: 0
    }
  }
}
layer {
  name: "prelu2_4"
  type: "PReLU"
  bottom: "conv2_4"
  top: "conv2_4"
}
layer {
  name: "pool2_4"
  type: "Pooling"
  bottom: "conv2_4"
  top: "pool2_4"
  pooling_param {
    pool: MAX
    kernel_size: 3
    stride: 2
  }
}
layer {
  name: "conv3_4"
  type: "Convolution"
  bottom: "pool2_4"
  top: "conv3_4"
  param {
    lr_mult: 1
    decay_mult: 1
  }
  param {
    lr_mult: 2
    decay_mult: 1
  }
  convolution_param {
    num_output: 64
    kernel_size: 2
    stride: 1
    weight_filler {
      type: "xavier"
    }
    bias_filler {
      type: "constant"
      value: 0
    }
  }
}
layer {
  name: "prelu3_4"
  type: "PReLU"
  bottom: "conv3_4"
  top: "conv3_4"
}
layer {
  name: "conv1_5"
  type: "Convolution"
  bottom: "data245"
  top: "conv1_5"
  param {
    lr_mult: 1
    decay_mult: 1
  }
  param {
    lr_mult: 2
    decay_mult: 1
  }
  convolution_param {
    num_output: 28
    kernel_size: 3
    stride: 1
    weight_filler {
      type: "xavier"
    }
    bias_filler {
      type: "constant"
      value: 0
    }
  }
}
layer {
  name: "prelu1_5"
  type: "PReLU"
  bottom: "conv1_5"
  top: "conv1_5"
}
layer {
  name: "pool1_5"
  type: "Pooling"
  bottom: "conv1_5"
  top: "pool1_5"
  pooling_param {
    pool: MAX
    kernel_size: 3
    stride: 2
  }
}
layer {
  name: "conv2_5"
  type: "Convolution"
  bottom: "pool1_5"
  top: "conv2_5"
  param {
    lr_mult: 1
    decay_mult: 1
  }
  param {
    lr_mult: 2
    decay_mult: 1
  }
  convolution_param {
    num_output: 48
    kernel_size: 3
    stride: 1
    weight_filler {
      type: "xavier"
    }
    bias_filler {
      type: "constant"
      value: 0
    }
  }
}
layer {
  name: "prelu2_5"
  type: "PReLU"
  bottom: "conv2_5"
  top: "conv2_5"
}
layer {
  name: "pool2_5"
  type: "Pooling"
  bottom: "conv2_5"
  top: "pool2_5"
  pooling_param {
    pool: MAX
    kernel_size: 3
    stride: 2
  }
}
layer {
  name: "conv3_5"
  type: "Convolution"
  bottom: "pool2_5"
  top: "conv3_5"
  param {
    lr_mult: 1
    decay_mult: 1
  }
  param {
    lr_mult: 2
    decay_mult: 1
  }
  convolution_param {
    num_output: 64
    kernel_size: 2
    stride: 1
    weight_filler {
      type: "xavier"
    }
    bias_filler {
      type: "constant"
      value: 0
    }
  }
}
layer {
  name: "prelu3_5"
  type: "PReLU"
  bottom: "conv3_5"
  top: "conv3_5"
}
layer {
  name: "concat"
  type: "Concat"
  bottom: "conv3_1"
  bottom: "conv3_2"
  bottom: "conv3_3"
  bottom: "conv3_4"
  bottom: "conv3_5"
  top: "conv3"
  concat_param {
    axis: 1
  }
}
layer {
  name: "fc4"
  type: "InnerProduct"
  bottom: "conv3"
  top: "fc4"
  param {
    lr_mult: 1
    decay_mult: 1
  }
  param {
    lr_mult: 2
    decay_mult: 1
  }
  inner_product_param {
    num_output: 256
    weight_filler {
      type: "xavier"
    }
    bias_filler {
      type: "constant"
      value: 0
    }
  }
}
layer {
  name: "prelu4"
  type: "PReLU"
  bottom: "fc4"
  top: "fc4"
}
layer {
  name: "fc4_1"
  type: "InnerProduct"
  bottom: "fc4"
  top: "fc4_1"
  param {
    lr_mult: 1
    decay_mult: 1
  }
  param {
    lr_mult: 2
    decay_mult: 1
  }
  inner_product_param {
    num_output: 64
    weight_filler {
      type: "xavier"
    }
    bias_filler {
      type: "constant"
      value: 0
    }
  }
}
layer {
  name: "prelu4_1"
  type: "PReLU"
  bottom: "fc4_1"
  top: "fc4_1"
}
layer {
  name: "fc5_1"
  type: "InnerProduct"
  bottom: "fc4_1"
  top: "fc5_1"
  param {
    lr_mult: 1
    decay_mult: 1
  }
  param {
    lr_mult: 2
    decay_mult: 1
  }
  inner_product_param {
    num_output: 2
    weight_filler {
      type: "xavier"
    }
    bias_filler {
      type: "constant"
      value: 0
    }
  }
}
layer {
  name: "fc4_2"
  type: "InnerProduct"
  bottom: "fc4"
  top: "fc4_2"
  param {
    lr_mult: 1
    decay_mult: 1
  }
  param {
    lr_mult: 2
    decay_mult: 1
  }
  inner_product_param {
    num_output: 64
    weight_filler {
      type: "xavier"
    }
    bias_filler {
      type: "constant"
      value: 0
    }
  }
}
layer {
  name: "prelu4_2"
  type: "PReLU"
  bottom: "fc4_2"
  top: "fc4_2"
}
layer {
  name: "fc5_2"
  type: "InnerProduct"
  bottom: "fc4_2"
  top: "fc5_2"
  param {
    lr_mult: 1
    decay_mult: 1
  }
  param {
    lr_mult: 2
    decay_mult: 1
  }
  inner_product_param {
    num_output: 2
    weight_filler {
      type: "xavier"
    }
    bias_filler {
      type: "constant"
      value: 0
    }
  }
}
layer {
  name: "fc4_3"
  type: "InnerProduct"
  bottom: "fc4"
  top: "fc4_3"
  param {
    lr_mult: 1
    decay_mult: 1
  }
  param {
    lr_mult: 2
    decay_mult: 1
  }
  inner_product_param {
    num_output: 64
    weight_filler {
      type: "xavier"
    }
    bias_filler {
      type: "constant"
      value: 0
    }
  }
}
layer {
  name: "prelu4_3"
  type: "PReLU"
  bottom: "fc4_3"
  top: "fc4_3"
}
layer {
  name: "fc5_3"
  type: "InnerProduct"
  bottom: "fc4_3"
  top: "fc5_3"
  param {
    lr_mult: 1
    decay_mult: 1
  }
  param {
    lr_mult: 2
    decay_mult: 1
  }
  inner_product_param {
    num_output: 2
    weight_filler {
      type: "xavier"
    }
    bias_filler {
      type: "constant"
      value: 0
    }
  }
}
layer {
  name: "fc4_4"
  type: "InnerProduct"
  bottom: "fc4"
  top: "fc4_4"
  param {
    lr_mult: 1
    decay_mult: 1
  }
  param {
    lr_mult: 2
    decay_mult: 1
  }
  inner_product_param {
    num_output: 64
    weight_filler {
      type: "xavier"
    }
    bias_filler {
      type: "constant"
      value: 0
    }
  }
}
layer {
  name: "prelu4_4"
  type: "PReLU"
  bottom: "fc4_4"
  top: "fc4_4"
}
layer {
  name: "fc5_4"
  type: "InnerProduct"
  bottom: "fc4_4"
  top: "fc5_4"
  param {
    lr_mult: 1
    decay_mult: 1
  }
  param {
    lr_mult: 2
    decay_mult: 1
  }
  inner_product_param {
    num_output: 2
    weight_filler {
      type: "xavier"
    }
    bias_filler {
      type: "constant"
      value: 0
    }
  }
}
layer {
  name: "fc4_5"
  type: "InnerProduct"
  bottom: "fc4"
  top: "fc4_5"
  param {
    lr_mult: 1
    decay_mult: 1
  }
  param {
    lr_mult: 2
    decay_mult: 1
  }
  inner_product_param {
    num_output: 64
    weight_filler {
      type: "xavier"
    }
    bias_filler {
      type: "constant"
      value: 0
    }
  }
}
layer {
  name: "prelu4_5"
  type: "PReLU"
  bottom: "fc4_5"
  top: "fc4_5"
}
layer {
  name: "fc5_5"
  type: "InnerProduct"
  bottom: "fc4_5"
  top: "fc5_5"
  param {
    lr_mult: 1
    decay_mult: 1
  }
  param {
    lr_mult: 2
    decay_mult: 1
  }
  inner_product_param {
    num_output: 2
    weight_filler {
      type: "xavier"
    }
    bias_filler {
      type: "constant"
      value: 0
    }
  }
}
I0612 09:43:33.235733 49663 net.cpp:413] Input 0 -> data
I0612 09:43:33.235844 49663 layer_factory.hpp:77] Creating layer slicer_data
I0612 09:43:33.235862 49663 net.cpp:106] Creating Layer slicer_data
I0612 09:43:33.235870 49663 net.cpp:454] slicer_data <- data
I0612 09:43:33.235882 49663 net.cpp:411] slicer_data -> data241
I0612 09:43:33.235895 49663 net.cpp:411] slicer_data -> data242
I0612 09:43:33.235908 49663 net.cpp:411] slicer_data -> data243
I0612 09:43:33.235919 49663 net.cpp:411] slicer_data -> data244
I0612 09:43:33.235930 49663 net.cpp:411] slicer_data -> data245
I0612 09:43:33.236065 49663 net.cpp:150] Setting up slicer_data
I0612 09:43:33.236078 49663 net.cpp:157] Top shape: 1 3 24 24 (1728)
I0612 09:43:33.236088 49663 net.cpp:157] Top shape: 1 3 24 24 (1728)
I0612 09:43:33.236096 49663 net.cpp:157] Top shape: 1 3 24 24 (1728)
I0612 09:43:33.236104 49663 net.cpp:157] Top shape: 1 3 24 24 (1728)
I0612 09:43:33.236112 49663 net.cpp:157] Top shape: 1 3 24 24 (1728)
I0612 09:43:33.236119 49663 net.cpp:165] Memory required for data: 34560
I0612 09:43:33.236126 49663 layer_factory.hpp:77] Creating layer conv1_1
I0612 09:43:33.236142 49663 net.cpp:106] Creating Layer conv1_1
I0612 09:43:33.236150 49663 net.cpp:454] conv1_1 <- data241
I0612 09:43:33.236161 49663 net.cpp:411] conv1_1 -> conv1_1
I0612 09:43:33.236582 49663 net.cpp:150] Setting up conv1_1
I0612 09:43:33.236594 49663 net.cpp:157] Top shape: 1 28 22 22 (13552)
I0612 09:43:33.236601 49663 net.cpp:165] Memory required for data: 88768
I0612 09:43:33.236620 49663 layer_factory.hpp:77] Creating layer prelu1_1
I0612 09:43:33.236632 49663 net.cpp:106] Creating Layer prelu1_1
I0612 09:43:33.236639 49663 net.cpp:454] prelu1_1 <- conv1_1
I0612 09:43:33.236649 49663 net.cpp:397] prelu1_1 -> conv1_1 (in-place)
I0612 09:43:33.236814 49663 net.cpp:150] Setting up prelu1_1
I0612 09:43:33.236825 49663 net.cpp:157] Top shape: 1 28 22 22 (13552)
I0612 09:43:33.236832 49663 net.cpp:165] Memory required for data: 142976
I0612 09:43:33.236843 49663 layer_factory.hpp:77] Creating layer pool1_1
I0612 09:43:33.236855 49663 net.cpp:106] Creating Layer pool1_1
I0612 09:43:33.236861 49663 net.cpp:454] pool1_1 <- conv1_1
I0612 09:43:33.236871 49663 net.cpp:411] pool1_1 -> pool1_1
I0612 09:43:33.236929 49663 net.cpp:150] Setting up pool1_1
I0612 09:43:33.236940 49663 net.cpp:157] Top shape: 1 28 11 11 (3388)
I0612 09:43:33.236946 49663 net.cpp:165] Memory required for data: 156528
I0612 09:43:33.236953 49663 layer_factory.hpp:77] Creating layer conv2_1
I0612 09:43:33.236968 49663 net.cpp:106] Creating Layer conv2_1
I0612 09:43:33.236974 49663 net.cpp:454] conv2_1 <- pool1_1
I0612 09:43:33.236985 49663 net.cpp:411] conv2_1 -> conv2_1
I0612 09:43:33.237515 49663 net.cpp:150] Setting up conv2_1
I0612 09:43:33.237529 49663 net.cpp:157] Top shape: 1 48 9 9 (3888)
I0612 09:43:33.237536 49663 net.cpp:165] Memory required for data: 172080
I0612 09:43:33.237550 49663 layer_factory.hpp:77] Creating layer prelu2_1
I0612 09:43:33.237561 49663 net.cpp:106] Creating Layer prelu2_1
I0612 09:43:33.237567 49663 net.cpp:454] prelu2_1 <- conv2_1
I0612 09:43:33.237577 49663 net.cpp:397] prelu2_1 -> conv2_1 (in-place)
I0612 09:43:33.237723 49663 net.cpp:150] Setting up prelu2_1
I0612 09:43:33.237742 49663 net.cpp:157] Top shape: 1 48 9 9 (3888)
I0612 09:43:33.237749 49663 net.cpp:165] Memory required for data: 187632
I0612 09:43:33.237758 49663 layer_factory.hpp:77] Creating layer pool2_1
I0612 09:43:33.237768 49663 net.cpp:106] Creating Layer pool2_1
I0612 09:43:33.237776 49663 net.cpp:454] pool2_1 <- conv2_1
I0612 09:43:33.237784 49663 net.cpp:411] pool2_1 -> pool2_1
I0612 09:43:33.237843 49663 net.cpp:150] Setting up pool2_1
I0612 09:43:33.237854 49663 net.cpp:157] Top shape: 1 48 4 4 (768)
I0612 09:43:33.237859 49663 net.cpp:165] Memory required for data: 190704
I0612 09:43:33.237865 49663 layer_factory.hpp:77] Creating layer conv3_1
I0612 09:43:33.237879 49663 net.cpp:106] Creating Layer conv3_1
I0612 09:43:33.237885 49663 net.cpp:454] conv3_1 <- pool2_1
I0612 09:43:33.237896 49663 net.cpp:411] conv3_1 -> conv3_1
I0612 09:43:33.238431 49663 net.cpp:150] Setting up conv3_1
I0612 09:43:33.238445 49663 net.cpp:157] Top shape: 1 64 3 3 (576)
I0612 09:43:33.238472 49663 net.cpp:165] Memory required for data: 193008
I0612 09:43:33.238484 49663 layer_factory.hpp:77] Creating layer prelu3_1
I0612 09:43:33.238497 49663 net.cpp:106] Creating Layer prelu3_1
I0612 09:43:33.238504 49663 net.cpp:454] prelu3_1 <- conv3_1
I0612 09:43:33.238513 49663 net.cpp:397] prelu3_1 -> conv3_1 (in-place)
I0612 09:43:33.238658 49663 net.cpp:150] Setting up prelu3_1
I0612 09:43:33.238669 49663 net.cpp:157] Top shape: 1 64 3 3 (576)
I0612 09:43:33.238677 49663 net.cpp:165] Memory required for data: 195312
I0612 09:43:33.238688 49663 layer_factory.hpp:77] Creating layer conv1_2
I0612 09:43:33.238701 49663 net.cpp:106] Creating Layer conv1_2
I0612 09:43:33.238708 49663 net.cpp:454] conv1_2 <- data242
I0612 09:43:33.238720 49663 net.cpp:411] conv1_2 -> conv1_2
I0612 09:43:33.239116 49663 net.cpp:150] Setting up conv1_2
I0612 09:43:33.239128 49663 net.cpp:157] Top shape: 1 28 22 22 (13552)
I0612 09:43:33.239135 49663 net.cpp:165] Memory required for data: 249520
I0612 09:43:33.239146 49663 layer_factory.hpp:77] Creating layer prelu1_2
I0612 09:43:33.239156 49663 net.cpp:106] Creating Layer prelu1_2
I0612 09:43:33.239162 49663 net.cpp:454] prelu1_2 <- conv1_2
I0612 09:43:33.239173 49663 net.cpp:397] prelu1_2 -> conv1_2 (in-place)
I0612 09:43:33.239329 49663 net.cpp:150] Setting up prelu1_2
I0612 09:43:33.239341 49663 net.cpp:157] Top shape: 1 28 22 22 (13552)
I0612 09:43:33.239346 49663 net.cpp:165] Memory required for data: 303728
I0612 09:43:33.239356 49663 layer_factory.hpp:77] Creating layer pool1_2
I0612 09:43:33.239365 49663 net.cpp:106] Creating Layer pool1_2
I0612 09:43:33.239372 49663 net.cpp:454] pool1_2 <- conv1_2
I0612 09:43:33.239382 49663 net.cpp:411] pool1_2 -> pool1_2
I0612 09:43:33.239437 49663 net.cpp:150] Setting up pool1_2
I0612 09:43:33.239449 49663 net.cpp:157] Top shape: 1 28 11 11 (3388)
I0612 09:43:33.239454 49663 net.cpp:165] Memory required for data: 317280
I0612 09:43:33.239460 49663 layer_factory.hpp:77] Creating layer conv2_2
I0612 09:43:33.239473 49663 net.cpp:106] Creating Layer conv2_2
I0612 09:43:33.239480 49663 net.cpp:454] conv2_2 <- pool1_2
I0612 09:43:33.239490 49663 net.cpp:411] conv2_2 -> conv2_2
I0612 09:43:33.240012 49663 net.cpp:150] Setting up conv2_2
I0612 09:43:33.240025 49663 net.cpp:157] Top shape: 1 48 9 9 (3888)
I0612 09:43:33.240031 49663 net.cpp:165] Memory required for data: 332832
I0612 09:43:33.240041 49663 layer_factory.hpp:77] Creating layer prelu2_2
I0612 09:43:33.240051 49663 net.cpp:106] Creating Layer prelu2_2
I0612 09:43:33.240057 49663 net.cpp:454] prelu2_2 <- conv2_2
I0612 09:43:33.240067 49663 net.cpp:397] prelu2_2 -> conv2_2 (in-place)
I0612 09:43:33.240214 49663 net.cpp:150] Setting up prelu2_2
I0612 09:43:33.240224 49663 net.cpp:157] Top shape: 1 48 9 9 (3888)
I0612 09:43:33.240231 49663 net.cpp:165] Memory required for data: 348384
I0612 09:43:33.240239 49663 layer_factory.hpp:77] Creating layer pool2_2
I0612 09:43:33.240249 49663 net.cpp:106] Creating Layer pool2_2
I0612 09:43:33.240255 49663 net.cpp:454] pool2_2 <- conv2_2
I0612 09:43:33.240274 49663 net.cpp:411] pool2_2 -> pool2_2
I0612 09:43:33.240332 49663 net.cpp:150] Setting up pool2_2
I0612 09:43:33.240342 49663 net.cpp:157] Top shape: 1 48 4 4 (768)
I0612 09:43:33.240348 49663 net.cpp:165] Memory required for data: 351456
I0612 09:43:33.240355 49663 layer_factory.hpp:77] Creating layer conv3_2
I0612 09:43:33.240368 49663 net.cpp:106] Creating Layer conv3_2
I0612 09:43:33.240375 49663 net.cpp:454] conv3_2 <- pool2_2
I0612 09:43:33.240386 49663 net.cpp:411] conv3_2 -> conv3_2
I0612 09:43:33.240921 49663 net.cpp:150] Setting up conv3_2
I0612 09:43:33.240933 49663 net.cpp:157] Top shape: 1 64 3 3 (576)
I0612 09:43:33.240939 49663 net.cpp:165] Memory required for data: 353760
I0612 09:43:33.240954 49663 layer_factory.hpp:77] Creating layer prelu3_2
I0612 09:43:33.240967 49663 net.cpp:106] Creating Layer prelu3_2
I0612 09:43:33.240973 49663 net.cpp:454] prelu3_2 <- conv3_2
I0612 09:43:33.240983 49663 net.cpp:397] prelu3_2 -> conv3_2 (in-place)
I0612 09:43:33.241124 49663 net.cpp:150] Setting up prelu3_2
I0612 09:43:33.241134 49663 net.cpp:157] Top shape: 1 64 3 3 (576)
I0612 09:43:33.241142 49663 net.cpp:165] Memory required for data: 356064
I0612 09:43:33.241149 49663 layer_factory.hpp:77] Creating layer conv1_3
I0612 09:43:33.241161 49663 net.cpp:106] Creating Layer conv1_3
I0612 09:43:33.241168 49663 net.cpp:454] conv1_3 <- data243
I0612 09:43:33.241180 49663 net.cpp:411] conv1_3 -> conv1_3
I0612 09:43:33.241577 49663 net.cpp:150] Setting up conv1_3
I0612 09:43:33.241590 49663 net.cpp:157] Top shape: 1 28 22 22 (13552)
I0612 09:43:33.241596 49663 net.cpp:165] Memory required for data: 410272
I0612 09:43:33.241607 49663 layer_factory.hpp:77] Creating layer prelu1_3
I0612 09:43:33.241617 49663 net.cpp:106] Creating Layer prelu1_3
I0612 09:43:33.241623 49663 net.cpp:454] prelu1_3 <- conv1_3
I0612 09:43:33.241632 49663 net.cpp:397] prelu1_3 -> conv1_3 (in-place)
I0612 09:43:33.241787 49663 net.cpp:150] Setting up prelu1_3
I0612 09:43:33.241798 49663 net.cpp:157] Top shape: 1 28 22 22 (13552)
I0612 09:43:33.241806 49663 net.cpp:165] Memory required for data: 464480
I0612 09:43:33.241813 49663 layer_factory.hpp:77] Creating layer pool1_3
I0612 09:43:33.241824 49663 net.cpp:106] Creating Layer pool1_3
I0612 09:43:33.241830 49663 net.cpp:454] pool1_3 <- conv1_3
I0612 09:43:33.241843 49663 net.cpp:411] pool1_3 -> pool1_3
I0612 09:43:33.241899 49663 net.cpp:150] Setting up pool1_3
I0612 09:43:33.241909 49663 net.cpp:157] Top shape: 1 28 11 11 (3388)
I0612 09:43:33.241914 49663 net.cpp:165] Memory required for data: 478032
I0612 09:43:33.241920 49663 layer_factory.hpp:77] Creating layer conv2_3
I0612 09:43:33.241933 49663 net.cpp:106] Creating Layer conv2_3
I0612 09:43:33.241940 49663 net.cpp:454] conv2_3 <- pool1_3
I0612 09:43:33.241950 49663 net.cpp:411] conv2_3 -> conv2_3
I0612 09:43:33.242478 49663 net.cpp:150] Setting up conv2_3
I0612 09:43:33.242492 49663 net.cpp:157] Top shape: 1 48 9 9 (3888)
I0612 09:43:33.242499 49663 net.cpp:165] Memory required for data: 493584
I0612 09:43:33.242509 49663 layer_factory.hpp:77] Creating layer prelu2_3
I0612 09:43:33.242519 49663 net.cpp:106] Creating Layer prelu2_3
I0612 09:43:33.242527 49663 net.cpp:454] prelu2_3 <- conv2_3
I0612 09:43:33.242537 49663 net.cpp:397] prelu2_3 -> conv2_3 (in-place)
I0612 09:43:33.242689 49663 net.cpp:150] Setting up prelu2_3
I0612 09:43:33.242700 49663 net.cpp:157] Top shape: 1 48 9 9 (3888)
I0612 09:43:33.242707 49663 net.cpp:165] Memory required for data: 509136
I0612 09:43:33.242715 49663 layer_factory.hpp:77] Creating layer pool2_3
I0612 09:43:33.242724 49663 net.cpp:106] Creating Layer pool2_3
I0612 09:43:33.242730 49663 net.cpp:454] pool2_3 <- conv2_3
I0612 09:43:33.242739 49663 net.cpp:411] pool2_3 -> pool2_3
I0612 09:43:33.242796 49663 net.cpp:150] Setting up pool2_3
I0612 09:43:33.242805 49663 net.cpp:157] Top shape: 1 48 4 4 (768)
I0612 09:43:33.242811 49663 net.cpp:165] Memory required for data: 512208
I0612 09:43:33.242817 49663 layer_factory.hpp:77] Creating layer conv3_3
I0612 09:43:33.242830 49663 net.cpp:106] Creating Layer conv3_3
I0612 09:43:33.242844 49663 net.cpp:454] conv3_3 <- pool2_3
I0612 09:43:33.242856 49663 net.cpp:411] conv3_3 -> conv3_3
I0612 09:43:33.243386 49663 net.cpp:150] Setting up conv3_3
I0612 09:43:33.243398 49663 net.cpp:157] Top shape: 1 64 3 3 (576)
I0612 09:43:33.243404 49663 net.cpp:165] Memory required for data: 514512
I0612 09:43:33.243414 49663 layer_factory.hpp:77] Creating layer prelu3_3
I0612 09:43:33.243423 49663 net.cpp:106] Creating Layer prelu3_3
I0612 09:43:33.243432 49663 net.cpp:454] prelu3_3 <- conv3_3
I0612 09:43:33.243439 49663 net.cpp:397] prelu3_3 -> conv3_3 (in-place)
I0612 09:43:33.243582 49663 net.cpp:150] Setting up prelu3_3
I0612 09:43:33.243592 49663 net.cpp:157] Top shape: 1 64 3 3 (576)
I0612 09:43:33.243598 49663 net.cpp:165] Memory required for data: 516816
I0612 09:43:33.243607 49663 layer_factory.hpp:77] Creating layer conv1_4
I0612 09:43:33.243619 49663 net.cpp:106] Creating Layer conv1_4
I0612 09:43:33.243626 49663 net.cpp:454] conv1_4 <- data244
I0612 09:43:33.243639 49663 net.cpp:411] conv1_4 -> conv1_4
I0612 09:43:33.244032 49663 net.cpp:150] Setting up conv1_4
I0612 09:43:33.244045 49663 net.cpp:157] Top shape: 1 28 22 22 (13552)
I0612 09:43:33.244050 49663 net.cpp:165] Memory required for data: 571024
I0612 09:43:33.244061 49663 layer_factory.hpp:77] Creating layer prelu1_4
I0612 09:43:33.244071 49663 net.cpp:106] Creating Layer prelu1_4
I0612 09:43:33.244077 49663 net.cpp:454] prelu1_4 <- conv1_4
I0612 09:43:33.244086 49663 net.cpp:397] prelu1_4 -> conv1_4 (in-place)
I0612 09:43:33.244249 49663 net.cpp:150] Setting up prelu1_4
I0612 09:43:33.244261 49663 net.cpp:157] Top shape: 1 28 22 22 (13552)
I0612 09:43:33.244266 49663 net.cpp:165] Memory required for data: 625232
I0612 09:43:33.244276 49663 layer_factory.hpp:77] Creating layer pool1_4
I0612 09:43:33.244285 49663 net.cpp:106] Creating Layer pool1_4
I0612 09:43:33.244292 49663 net.cpp:454] pool1_4 <- conv1_4
I0612 09:43:33.244300 49663 net.cpp:411] pool1_4 -> pool1_4
I0612 09:43:33.244357 49663 net.cpp:150] Setting up pool1_4
I0612 09:43:33.244367 49663 net.cpp:157] Top shape: 1 28 11 11 (3388)
I0612 09:43:33.244374 49663 net.cpp:165] Memory required for data: 638784
I0612 09:43:33.244379 49663 layer_factory.hpp:77] Creating layer conv2_4
I0612 09:43:33.244392 49663 net.cpp:106] Creating Layer conv2_4
I0612 09:43:33.244400 49663 net.cpp:454] conv2_4 <- pool1_4
I0612 09:43:33.244410 49663 net.cpp:411] conv2_4 -> conv2_4
I0612 09:43:33.244942 49663 net.cpp:150] Setting up conv2_4
I0612 09:43:33.244954 49663 net.cpp:157] Top shape: 1 48 9 9 (3888)
I0612 09:43:33.244961 49663 net.cpp:165] Memory required for data: 654336
I0612 09:43:33.244971 49663 layer_factory.hpp:77] Creating layer prelu2_4
I0612 09:43:33.244980 49663 net.cpp:106] Creating Layer prelu2_4
I0612 09:43:33.244987 49663 net.cpp:454] prelu2_4 <- conv2_4
I0612 09:43:33.244997 49663 net.cpp:397] prelu2_4 -> conv2_4 (in-place)
I0612 09:43:33.245143 49663 net.cpp:150] Setting up prelu2_4
I0612 09:43:33.245153 49663 net.cpp:157] Top shape: 1 48 9 9 (3888)
I0612 09:43:33.245159 49663 net.cpp:165] Memory required for data: 669888
I0612 09:43:33.245174 49663 layer_factory.hpp:77] Creating layer pool2_4
I0612 09:43:33.245184 49663 net.cpp:106] Creating Layer pool2_4
I0612 09:43:33.245191 49663 net.cpp:454] pool2_4 <- conv2_4
I0612 09:43:33.245200 49663 net.cpp:411] pool2_4 -> pool2_4
I0612 09:43:33.245257 49663 net.cpp:150] Setting up pool2_4
I0612 09:43:33.245267 49663 net.cpp:157] Top shape: 1 48 4 4 (768)
I0612 09:43:33.245273 49663 net.cpp:165] Memory required for data: 672960
I0612 09:43:33.245280 49663 layer_factory.hpp:77] Creating layer conv3_4
I0612 09:43:33.245292 49663 net.cpp:106] Creating Layer conv3_4
I0612 09:43:33.245298 49663 net.cpp:454] conv3_4 <- pool2_4
I0612 09:43:33.245309 49663 net.cpp:411] conv3_4 -> conv3_4
I0612 09:43:33.245833 49663 net.cpp:150] Setting up conv3_4
I0612 09:43:33.245846 49663 net.cpp:157] Top shape: 1 64 3 3 (576)
I0612 09:43:33.245852 49663 net.cpp:165] Memory required for data: 675264
I0612 09:43:33.245862 49663 layer_factory.hpp:77] Creating layer prelu3_4
I0612 09:43:33.245883 49663 net.cpp:106] Creating Layer prelu3_4
I0612 09:43:33.245893 49663 net.cpp:454] prelu3_4 <- conv3_4
I0612 09:43:33.245901 49663 net.cpp:397] prelu3_4 -> conv3_4 (in-place)
I0612 09:43:33.246049 49663 net.cpp:150] Setting up prelu3_4
I0612 09:43:33.246059 49663 net.cpp:157] Top shape: 1 64 3 3 (576)
I0612 09:43:33.246067 49663 net.cpp:165] Memory required for data: 677568
I0612 09:43:33.246075 49663 layer_factory.hpp:77] Creating layer conv1_5
I0612 09:43:33.246088 49663 net.cpp:106] Creating Layer conv1_5
I0612 09:43:33.246094 49663 net.cpp:454] conv1_5 <- data245
I0612 09:43:33.246106 49663 net.cpp:411] conv1_5 -> conv1_5
I0612 09:43:33.246522 49663 net.cpp:150] Setting up conv1_5
I0612 09:43:33.246537 49663 net.cpp:157] Top shape: 1 28 22 22 (13552)
I0612 09:43:33.246543 49663 net.cpp:165] Memory required for data: 731776
I0612 09:43:33.246554 49663 layer_factory.hpp:77] Creating layer prelu1_5
I0612 09:43:33.246580 49663 net.cpp:106] Creating Layer prelu1_5
I0612 09:43:33.246587 49663 net.cpp:454] prelu1_5 <- conv1_5
I0612 09:43:33.246596 49663 net.cpp:397] prelu1_5 -> conv1_5 (in-place)
I0612 09:43:33.246744 49663 net.cpp:150] Setting up prelu1_5
I0612 09:43:33.246755 49663 net.cpp:157] Top shape: 1 28 22 22 (13552)
I0612 09:43:33.246762 49663 net.cpp:165] Memory required for data: 785984
I0612 09:43:33.246769 49663 layer_factory.hpp:77] Creating layer pool1_5
I0612 09:43:33.246779 49663 net.cpp:106] Creating Layer pool1_5
I0612 09:43:33.246785 49663 net.cpp:454] pool1_5 <- conv1_5
I0612 09:43:33.246794 49663 net.cpp:411] pool1_5 -> pool1_5
I0612 09:43:33.246850 49663 net.cpp:150] Setting up pool1_5
I0612 09:43:33.246860 49663 net.cpp:157] Top shape: 1 28 11 11 (3388)
I0612 09:43:33.246865 49663 net.cpp:165] Memory required for data: 799536
I0612 09:43:33.246870 49663 layer_factory.hpp:77] Creating layer conv2_5
I0612 09:43:33.246892 49663 net.cpp:106] Creating Layer conv2_5
I0612 09:43:33.246899 49663 net.cpp:454] conv2_5 <- pool1_5
I0612 09:43:33.246909 49663 net.cpp:411] conv2_5 -> conv2_5
I0612 09:43:33.247411 49663 net.cpp:150] Setting up conv2_5
I0612 09:43:33.247422 49663 net.cpp:157] Top shape: 1 48 9 9 (3888)
I0612 09:43:33.247428 49663 net.cpp:165] Memory required for data: 815088
I0612 09:43:33.247437 49663 layer_factory.hpp:77] Creating layer prelu2_5
I0612 09:43:33.247447 49663 net.cpp:106] Creating Layer prelu2_5
I0612 09:43:33.247452 49663 net.cpp:454] prelu2_5 <- conv2_5
I0612 09:43:33.247462 49663 net.cpp:397] prelu2_5 -> conv2_5 (in-place)
I0612 09:43:33.247601 49663 net.cpp:150] Setting up prelu2_5
I0612 09:43:33.247611 49663 net.cpp:157] Top shape: 1 48 9 9 (3888)
I0612 09:43:33.247615 49663 net.cpp:165] Memory required for data: 830640
I0612 09:43:33.247623 49663 layer_factory.hpp:77] Creating layer pool2_5
I0612 09:43:33.247632 49663 net.cpp:106] Creating Layer pool2_5
I0612 09:43:33.247638 49663 net.cpp:454] pool2_5 <- conv2_5
I0612 09:43:33.247648 49663 net.cpp:411] pool2_5 -> pool2_5
I0612 09:43:33.247699 49663 net.cpp:150] Setting up pool2_5
I0612 09:43:33.247709 49663 net.cpp:157] Top shape: 1 48 4 4 (768)
I0612 09:43:33.247714 49663 net.cpp:165] Memory required for data: 833712
I0612 09:43:33.247720 49663 layer_factory.hpp:77] Creating layer conv3_5
I0612 09:43:33.247731 49663 net.cpp:106] Creating Layer conv3_5
I0612 09:43:33.247738 49663 net.cpp:454] conv3_5 <- pool2_5
I0612 09:43:33.247748 49663 net.cpp:411] conv3_5 -> conv3_5
I0612 09:43:33.248241 49663 net.cpp:150] Setting up conv3_5
I0612 09:43:33.248253 49663 net.cpp:157] Top shape: 1 64 3 3 (576)
I0612 09:43:33.248258 49663 net.cpp:165] Memory required for data: 836016
I0612 09:43:33.248268 49663 layer_factory.hpp:77] Creating layer prelu3_5
I0612 09:43:33.248277 49663 net.cpp:106] Creating Layer prelu3_5
I0612 09:43:33.248284 49663 net.cpp:454] prelu3_5 <- conv3_5
I0612 09:43:33.248296 49663 net.cpp:397] prelu3_5 -> conv3_5 (in-place)
I0612 09:43:33.248428 49663 net.cpp:150] Setting up prelu3_5
I0612 09:43:33.248438 49663 net.cpp:157] Top shape: 1 64 3 3 (576)
I0612 09:43:33.248451 49663 net.cpp:165] Memory required for data: 838320
I0612 09:43:33.248459 49663 layer_factory.hpp:77] Creating layer concat
I0612 09:43:33.248471 49663 net.cpp:106] Creating Layer concat
I0612 09:43:33.248476 49663 net.cpp:454] concat <- conv3_1
I0612 09:43:33.248484 49663 net.cpp:454] concat <- conv3_2
I0612 09:43:33.248492 49663 net.cpp:454] concat <- conv3_3
I0612 09:43:33.248498 49663 net.cpp:454] concat <- conv3_4
I0612 09:43:33.248504 49663 net.cpp:454] concat <- conv3_5
I0612 09:43:33.248514 49663 net.cpp:411] concat -> conv3
I0612 09:43:33.248551 49663 net.cpp:150] Setting up concat
I0612 09:43:33.248561 49663 net.cpp:157] Top shape: 1 320 3 3 (2880)
I0612 09:43:33.248567 49663 net.cpp:165] Memory required for data: 849840
I0612 09:43:33.248574 49663 layer_factory.hpp:77] Creating layer fc4
I0612 09:43:33.248587 49663 net.cpp:106] Creating Layer fc4
I0612 09:43:33.248594 49663 net.cpp:454] fc4 <- conv3
I0612 09:43:33.248602 49663 net.cpp:411] fc4 -> fc4
I0612 09:43:33.259241 49663 net.cpp:150] Setting up fc4
I0612 09:43:33.259279 49663 net.cpp:157] Top shape: 1 256 (256)
I0612 09:43:33.259284 49663 net.cpp:165] Memory required for data: 850864
I0612 09:43:33.259297 49663 layer_factory.hpp:77] Creating layer prelu4
I0612 09:43:33.259310 49663 net.cpp:106] Creating Layer prelu4
I0612 09:43:33.259316 49663 net.cpp:454] prelu4 <- fc4
I0612 09:43:33.259326 49663 net.cpp:397] prelu4 -> fc4 (in-place)
I0612 09:43:33.259444 49663 net.cpp:150] Setting up prelu4
I0612 09:43:33.259454 49663 net.cpp:157] Top shape: 1 256 (256)
I0612 09:43:33.259459 49663 net.cpp:165] Memory required for data: 851888
I0612 09:43:33.259467 49663 layer_factory.hpp:77] Creating layer fc4_prelu4_0_split
I0612 09:43:33.259479 49663 net.cpp:106] Creating Layer fc4_prelu4_0_split
I0612 09:43:33.259485 49663 net.cpp:454] fc4_prelu4_0_split <- fc4
I0612 09:43:33.259495 49663 net.cpp:411] fc4_prelu4_0_split -> fc4_prelu4_0_split_0
I0612 09:43:33.259507 49663 net.cpp:411] fc4_prelu4_0_split -> fc4_prelu4_0_split_1
I0612 09:43:33.259517 49663 net.cpp:411] fc4_prelu4_0_split -> fc4_prelu4_0_split_2
I0612 09:43:33.259528 49663 net.cpp:411] fc4_prelu4_0_split -> fc4_prelu4_0_split_3
I0612 09:43:33.259538 49663 net.cpp:411] fc4_prelu4_0_split -> fc4_prelu4_0_split_4
I0612 09:43:33.259642 49663 net.cpp:150] Setting up fc4_prelu4_0_split
I0612 09:43:33.259650 49663 net.cpp:157] Top shape: 1 256 (256)
I0612 09:43:33.259657 49663 net.cpp:157] Top shape: 1 256 (256)
I0612 09:43:33.259663 49663 net.cpp:157] Top shape: 1 256 (256)
I0612 09:43:33.259670 49663 net.cpp:157] Top shape: 1 256 (256)
I0612 09:43:33.259676 49663 net.cpp:157] Top shape: 1 256 (256)
I0612 09:43:33.259681 49663 net.cpp:165] Memory required for data: 857008
I0612 09:43:33.259687 49663 layer_factory.hpp:77] Creating layer fc4_1
I0612 09:43:33.259699 49663 net.cpp:106] Creating Layer fc4_1
I0612 09:43:33.259706 49663 net.cpp:454] fc4_1 <- fc4_prelu4_0_split_0
I0612 09:43:33.259716 49663 net.cpp:411] fc4_1 -> fc4_1
I0612 09:43:33.260031 49663 net.cpp:150] Setting up fc4_1
I0612 09:43:33.260041 49663 net.cpp:157] Top shape: 1 64 (64)
I0612 09:43:33.260046 49663 net.cpp:165] Memory required for data: 857264
I0612 09:43:33.260056 49663 layer_factory.hpp:77] Creating layer prelu4_1
I0612 09:43:33.260066 49663 net.cpp:106] Creating Layer prelu4_1
I0612 09:43:33.260071 49663 net.cpp:454] prelu4_1 <- fc4_1
I0612 09:43:33.260080 49663 net.cpp:397] prelu4_1 -> fc4_1 (in-place)
I0612 09:43:33.260202 49663 net.cpp:150] Setting up prelu4_1
I0612 09:43:33.260211 49663 net.cpp:157] Top shape: 1 64 (64)
I0612 09:43:33.260216 49663 net.cpp:165] Memory required for data: 857520
I0612 09:43:33.260224 49663 layer_factory.hpp:77] Creating layer fc5_1
I0612 09:43:33.260234 49663 net.cpp:106] Creating Layer fc5_1
I0612 09:43:33.260241 49663 net.cpp:454] fc5_1 <- fc4_1
I0612 09:43:33.260249 49663 net.cpp:411] fc5_1 -> fc5_1
I0612 09:43:33.260385 49663 net.cpp:150] Setting up fc5_1
I0612 09:43:33.260394 49663 net.cpp:157] Top shape: 1 2 (2)
I0612 09:43:33.260399 49663 net.cpp:165] Memory required for data: 857528
I0612 09:43:33.260419 49663 layer_factory.hpp:77] Creating layer fc4_2
I0612 09:43:33.260430 49663 net.cpp:106] Creating Layer fc4_2
I0612 09:43:33.260437 49663 net.cpp:454] fc4_2 <- fc4_prelu4_0_split_1
I0612 09:43:33.260447 49663 net.cpp:411] fc4_2 -> fc4_2
I0612 09:43:33.260771 49663 net.cpp:150] Setting up fc4_2
I0612 09:43:33.260781 49663 net.cpp:157] Top shape: 1 64 (64)
I0612 09:43:33.260787 49663 net.cpp:165] Memory required for data: 857784
I0612 09:43:33.260794 49663 layer_factory.hpp:77] Creating layer prelu4_2
I0612 09:43:33.260814 49663 net.cpp:106] Creating Layer prelu4_2
I0612 09:43:33.260819 49663 net.cpp:454] prelu4_2 <- fc4_2
I0612 09:43:33.260828 49663 net.cpp:397] prelu4_2 -> fc4_2 (in-place)
I0612 09:43:33.260951 49663 net.cpp:150] Setting up prelu4_2
I0612 09:43:33.260959 49663 net.cpp:157] Top shape: 1 64 (64)
I0612 09:43:33.260964 49663 net.cpp:165] Memory required for data: 858040
I0612 09:43:33.260972 49663 layer_factory.hpp:77] Creating layer fc5_2
I0612 09:43:33.260982 49663 net.cpp:106] Creating Layer fc5_2
I0612 09:43:33.260988 49663 net.cpp:454] fc5_2 <- fc4_2
I0612 09:43:33.260998 49663 net.cpp:411] fc5_2 -> fc5_2
I0612 09:43:33.261133 49663 net.cpp:150] Setting up fc5_2
I0612 09:43:33.261142 49663 net.cpp:157] Top shape: 1 2 (2)
I0612 09:43:33.261147 49663 net.cpp:165] Memory required for data: 858048
I0612 09:43:33.261157 49663 layer_factory.hpp:77] Creating layer fc4_3
I0612 09:43:33.261167 49663 net.cpp:106] Creating Layer fc4_3
I0612 09:43:33.261173 49663 net.cpp:454] fc4_3 <- fc4_prelu4_0_split_2
I0612 09:43:33.261183 49663 net.cpp:411] fc4_3 -> fc4_3
I0612 09:43:33.261490 49663 net.cpp:150] Setting up fc4_3
I0612 09:43:33.261500 49663 net.cpp:157] Top shape: 1 64 (64)
I0612 09:43:33.261505 49663 net.cpp:165] Memory required for data: 858304
I0612 09:43:33.261514 49663 layer_factory.hpp:77] Creating layer prelu4_3
I0612 09:43:33.261523 49663 net.cpp:106] Creating Layer prelu4_3
I0612 09:43:33.261529 49663 net.cpp:454] prelu4_3 <- fc4_3
I0612 09:43:33.261538 49663 net.cpp:397] prelu4_3 -> fc4_3 (in-place)
I0612 09:43:33.261657 49663 net.cpp:150] Setting up prelu4_3
I0612 09:43:33.261665 49663 net.cpp:157] Top shape: 1 64 (64)
I0612 09:43:33.261672 49663 net.cpp:165] Memory required for data: 858560
I0612 09:43:33.261678 49663 layer_factory.hpp:77] Creating layer fc5_3
I0612 09:43:33.261688 49663 net.cpp:106] Creating Layer fc5_3
I0612 09:43:33.261694 49663 net.cpp:454] fc5_3 <- fc4_3
I0612 09:43:33.261703 49663 net.cpp:411] fc5_3 -> fc5_3
I0612 09:43:33.261840 49663 net.cpp:150] Setting up fc5_3
I0612 09:43:33.261849 49663 net.cpp:157] Top shape: 1 2 (2)
I0612 09:43:33.261854 49663 net.cpp:165] Memory required for data: 858568
I0612 09:43:33.261863 49663 layer_factory.hpp:77] Creating layer fc4_4
I0612 09:43:33.261873 49663 net.cpp:106] Creating Layer fc4_4
I0612 09:43:33.261879 49663 net.cpp:454] fc4_4 <- fc4_prelu4_0_split_3
I0612 09:43:33.261888 49663 net.cpp:411] fc4_4 -> fc4_4
I0612 09:43:33.262192 49663 net.cpp:150] Setting up fc4_4
I0612 09:43:33.262202 49663 net.cpp:157] Top shape: 1 64 (64)
I0612 09:43:33.262207 49663 net.cpp:165] Memory required for data: 858824
I0612 09:43:33.262228 49663 layer_factory.hpp:77] Creating layer prelu4_4
I0612 09:43:33.262238 49663 net.cpp:106] Creating Layer prelu4_4
I0612 09:43:33.262243 49663 net.cpp:454] prelu4_4 <- fc4_4
I0612 09:43:33.262253 49663 net.cpp:397] prelu4_4 -> fc4_4 (in-place)
I0612 09:43:33.262370 49663 net.cpp:150] Setting up prelu4_4
I0612 09:43:33.262379 49663 net.cpp:157] Top shape: 1 64 (64)
I0612 09:43:33.262384 49663 net.cpp:165] Memory required for data: 859080
I0612 09:43:33.262392 49663 layer_factory.hpp:77] Creating layer fc5_4
I0612 09:43:33.262403 49663 net.cpp:106] Creating Layer fc5_4
I0612 09:43:33.262408 49663 net.cpp:454] fc5_4 <- fc4_4
I0612 09:43:33.262418 49663 net.cpp:411] fc5_4 -> fc5_4
I0612 09:43:33.262574 49663 net.cpp:150] Setting up fc5_4
I0612 09:43:33.262585 49663 net.cpp:157] Top shape: 1 2 (2)
I0612 09:43:33.262590 49663 net.cpp:165] Memory required for data: 859088
I0612 09:43:33.262606 49663 layer_factory.hpp:77] Creating layer fc4_5
I0612 09:43:33.262616 49663 net.cpp:106] Creating Layer fc4_5
I0612 09:43:33.262622 49663 net.cpp:454] fc4_5 <- fc4_prelu4_0_split_4
I0612 09:43:33.262632 49663 net.cpp:411] fc4_5 -> fc4_5
I0612 09:43:33.262945 49663 net.cpp:150] Setting up fc4_5
I0612 09:43:33.262955 49663 net.cpp:157] Top shape: 1 64 (64)
I0612 09:43:33.262960 49663 net.cpp:165] Memory required for data: 859344
I0612 09:43:33.262969 49663 layer_factory.hpp:77] Creating layer prelu4_5
I0612 09:43:33.262979 49663 net.cpp:106] Creating Layer prelu4_5
I0612 09:43:33.262984 49663 net.cpp:454] prelu4_5 <- fc4_5
I0612 09:43:33.262991 49663 net.cpp:397] prelu4_5 -> fc4_5 (in-place)
I0612 09:43:33.263121 49663 net.cpp:150] Setting up prelu4_5
I0612 09:43:33.263130 49663 net.cpp:157] Top shape: 1 64 (64)
I0612 09:43:33.263135 49663 net.cpp:165] Memory required for data: 859600
I0612 09:43:33.263144 49663 layer_factory.hpp:77] Creating layer fc5_5
I0612 09:43:33.263154 49663 net.cpp:106] Creating Layer fc5_5
I0612 09:43:33.263159 49663 net.cpp:454] fc5_5 <- fc4_5
I0612 09:43:33.263168 49663 net.cpp:411] fc5_5 -> fc5_5
I0612 09:43:33.263305 49663 net.cpp:150] Setting up fc5_5
I0612 09:43:33.263315 49663 net.cpp:157] Top shape: 1 2 (2)
I0612 09:43:33.263320 49663 net.cpp:165] Memory required for data: 859608
I0612 09:43:33.263329 49663 net.cpp:228] fc5_5 does not need backward computation.
I0612 09:43:33.263335 49663 net.cpp:228] prelu4_5 does not need backward computation.
I0612 09:43:33.263341 49663 net.cpp:228] fc4_5 does not need backward computation.
I0612 09:43:33.263346 49663 net.cpp:228] fc5_4 does not need backward computation.
…
